Inference_pytorch/predict_model/regression_model_latency_noPGS.pth (torch_old, 99980 bytes, 43 tensors)

fc1.weight f4 [16, 7]
0	0xbe805ace	-0.25069278
1	0xbec063fd	-0.37576285
2	0x3d9e265c	0.0772216
3	0x3e66584d	0.22494622
4	0xbeb6a2c9	-0.3567107
5	0xbb2df81e	-0.0026545594
6	0x3d85542f	0.06510197
7	0xbeca4435	-0.39505163
8	0xbe0e8029	-0.13916077
9	0xbe387d86	-0.18016633
10	0x3d6c4bed	0.057689596
11	0xbd6ae6f0	-0.057349145
12	0x3e3b505d	0.18292375
13	0x3e771e6c	0.24132699
14	0xbd911d9e	-0.07085727
15	0xbe807a63	-0.25093374
16	0xbe26dc5b	-0.16294996
17	0xbe18344f	-0.14863704
18	0x3c0b83a5	0.008515273
19	0xbe98933f	-0.2979984
20	0x3edc0529	0.42972687
21	0xbdaacef0	-0.083402514
22	0xbd170e22	-0.036878712
23	0x3e5ca3ad	0.21546812
24	0xbdb0adef	-0.08626925
25	0xbebcab58	-0.36849475
26	0xbe416166	-0.18884811
27	0x3df46419	0.119331546
28	0x3e57b917	0.210667
29	0x3d5fed29	0.054669533
30	0xbe501414	-0.20320159
31	0x3e62edea	0.2216107
32	0x3d876d66	0.06612663
33	0x3e8022ea	0.25026637
34	0xbee0b068	-0.43884587
35	0xbe1267c0	-0.1429739
36	0x3d9f0851	0.07765258
37	0x3e820170	0.25391722
38	0xbe41eae3	-0.18937258
39	0x3e971873	0.2951084
40	0x3e539127	0.2066084
41	0x3e2c27b8	0.16812027
42	0xbd9a9e4d	-0.07549725
43	0x3e99eebf	0.3006496
44	0x3d1ac5f2	0.03778643
45	0xbe650f70	-0.2236917
46	0x3e8a8e9a	0.2706192
47	0xbe9d01a4	-0.30665314
48	0x3e0302b5	0.12794001
49	0xbdb5e5e1	-0.088817365
50	0x3e467a3d	0.19382568
51	0x3d66a8d1	0.05631334
52	0xbe889b83	-0.26681146
53	0xbefda099	-0.4953659
54	0x3ecf791c	0.40522087
55	0x3e154bbc	0.14579672
56	0x3eb46d71	0.35239747
57	0x3e94217d	0.289318
58	0x3ddbf0cc	0.10739288
59	0xbe56dd45	-0.20982845
60	0xbea9117e	-0.33021158
61	0xbea57922	-0.3231898
62	0xbe74e0a5	-0.2391382
63	0x3e9b6b9d	0.3035554
64	0x3d2ea8c7	0.042641427
65	0x3d404964	0.04694499
66	0x3e548a39	0.20755853
67	0x3e44266e	0.19155285
68	0xbe86eac1	-0.26350978
69	0x3dd05ff5	0.10174552
70	0xbe85b951	-0.26117948
71	0xbf0b559f	-0.5442752
72	0xbd8abdb2	-0.06774463
73	0xbd569f98	-0.052398294
74	0xbd8b2fac	-0.06796202
75	0x3d9e6908	0.07734877
76	0xbd24c46c	-0.040226385
77	0xbf2e34cd	-0.6804932
78	0x3e619a0b	0.22031419
79	0x3dfddb94	0.12395397
80	0x3e825db1	0.25462106
81	0xbe10f1dc	-0.14154762
82	0x3e5b9890	0.21444917
83	0xbe4760cb	-0.19470517
84	0x3cb524da	0.022112299
85	0x3d56c710	0.052435935
86	0xbb8b313a	-0.0042478116
87	0x3d9815ea	0.07426055
88	0xbf38eb8d	-0.7223442
89	0xbdba66a4	-0.091016084
90	0xbcd19aba	-0.025586475
91	0x3dd44d77	0.10366338
92	0xbeeabaa0	-0.4584551
93	0xbd30b05a	-0.043136932
94	0x3e09a298	0.13440931
95	0xbe75a35b	-0.23988096
96	0xbf172820	-0.590456
97	0x3d52a895	0.051430304
98	0xbe2f899e	-0.1714234
99	0xbec1dd19	-0.37863997
100	0xbb4d090a	-0.0031285905
101	0x3e6cbd5b	0.23119108
102	0xbe7e3f1b	-0.2482876
103	0xbd573055	-0.052536327
104	0xbead0a1d	-0.33796778
105	0xbddf3b4d	-0.108999826
106	0xbe75cb3b	-0.24003308
107	0x3d100e15	0.03516968
108	0xbe34f21f	-0.17670487
109	0x3e9c3d34	0.30515444
110	0xbf092256	-0.5356802
111	0xbe67821b	-0.22608225

fc1.bias f4 [16]
0	0x3b302eb3	0.0026883304
1	0x3c03cf44	0.008045021
2	0x3b578c04	0.0032889852
3	0x3b85252c	0.004063269
4	0xbb0fa32c	-0.0021917326
5	0x3a7ff142	0.0009763428
6	0x3b8572e8	0.004072536
7	0xb8f61678	-0.00011734379
8	0x3a425015	0.0007412446
9	0x3c08a1a2	0.0083393175
10	0x3bf55c8d	0.0074878396
11	0x3b22ebf1	0.002485987
12	0x3ca4d8f8	0.02012299
13	0xbc32a04c	-0.010902476
14	0x3bb517f6	0.005526538
15	0xbb180053	-0.0023193553

bn1.weight f4 [16]
0	0x3f6de860	0.929327
1	0x3f8f4d45	1.1195456
2	0x3f8891ac	1.0669456
3	0x3f6db1fe	0.9284972
4	0x3f7291b4	0.94753575
5	0x3f776643	0.96640414
6	0x3f6c0fcb	0.922116
7	0x3f813337	1.0093755
8	0x3f74c16e	0.9560765
9	0x3f63bd25	0.88960487
10	0x3f7767c8	0.9664273
11	0x3f84e885	1.0383459
12	0x3f965221	1.1743814
13	0x3f81b083	1.0131992
14	0x3f626b70	0.88445187
15	0x3f61e794	0.88243985

bn1.bias f4 [16]
0	0x3d65c159	0.056092594
1	0x3d2a5a3a	0.041589953
2	0x3c3b0a42	0.01141602
3	0x3e1d15bc	0.15340322
4	0x3e19e85d	0.15030046
5	0x3cb38e73	0.021918511
6	0xbd841d7b	-0.064509355
7	0x3afbffb5	0.0019225987
8	0x3d6e7b2e	0.058222942
9	0x3e00607f	0.1253681
10	0x3c7ca7bf	0.015420853
11	0x3d942326	0.072332665
12	0xbdca902f	-0.09890782
13	0x3ea590fb	0.32337174
14	0x3e081a9f	0.13291405
15	0x3e71b087	0.23602496

bn1.running_mean f4 [16]
0	0x3b536700	0.0032257438
1	0x3c01eb07	0.00792957
2	0x3be7f1d5	0.007078389
3	0x3b4feb65	0.0031726
4	0xb8853800	-6.352365e-05
5	0x3b2c57b9	0.0026297404
6	0x3b8c0248	0.004272733
7	0xbb9d5ea3	-0.0048025413
8	0x3a1cb3c0	0.00059777126
9	0x3c3825f4	0.0112395175
10	0x3bd93072	0.0066280896
11	0xbb9196fe	-0.0044430485
12	0x3c8c07ec	0.017093621
13	0xbbc97906	-0.0061484603
14	0x3c033e44	0.008010451
15	0x3b9f19f3	0.0048553883

bn1.running_var f4 [16]
0	0x3e84948a	0.25894576
1	0x3ea2749e	0.31729597
2	0x3eac517e	0.33655924
3	0x3e38125c	0.17975754
4	0x3e8cb58e	0.27482265
5	0x3e57df71	0.2108133
6	0x3e9bc7f7	0.30426
7	0x3f342446	0.7036785
8	0x3f14b7c4	0.58092904
9	0x3ebd3abe	0.3695888
10	0x3ec8ed6e	0.39243644
11	0x3f3ffaf3	0.74992293
12	0x3f021016	0.50805795
13	0x3f017284	0.5056536
14	0x3e9a7126	0.3016445
15	0x3f102a68	0.56314707

fc2.weight f4 [32, 16]
0	0xbe250f9a	-0.16119233
1	0xbeb3c37b	-0.35110077
2	0x3d8a07eb	0.067397915
3	0xbd882874	-0.06648341
4	0x3dc74c2f	0.09731328
5	0xbd89a98f	-0.06721794
6	0x3e801d8d	0.25022545
7	0xbea57a3e	-0.32319826
8	0x3e4eaed3	0.20183878
9	0x3dd717a1	0.10502554
10	0x3e01f180	0.12689781
11	0xbe74d1b5	-0.23908122
12	0x3e848410	0.25882006
13	0xbe0fff68	-0.14062274
14	0x3e0218dc	0.12704796
15	0x3cf48231	0.029847236
16	0xbd1efcea	-0.038815416
17	0xbe5e636c	-0.21717614
18	0xbe9e3d0f	-0.3090596
19	0xbdfc2386	-0.12311463
20	0xbe9c860d	-0.30571023
21	0xbdb7110b	-0.089387976
22	0x3e3b1354	0.18269092
23	0x3dae5592	0.08512415
24	0x3de35b18	0.11101359
25	0xbe1a6542	-0.1507769
26	0xbe3f6aab	-0.18693034
27	0x3c7e50a5	0.015522157
28	0xbdd8c185	-0.10583786
29	0xbdf38225	-0.118900575
30	0x3d8c1cb2	0.06841411
31	0x3e4cd4da	0.20003071
32	0x3e8a3ab2	0.26997906
33	0x3e5a62d8	0.21326768
34	0xbea5799a	-0.32319337
35	0xbe0bfd6e	-0.13670895
36	0x3d6673e8	0.05626288
37	0xbe8bef89	-0.27331188
38	0x3d5be6d2	0.053686924
39	0xbe33d6c3	-0.17562394
40	0xbda51819	-0.08061237
41	0xbd00a846	-0.031410478
42	0x3e323599	0.17403258
43	0xbe239caf	-0.15977739
44	0x3e2db025	0.16961725
45	0xbe103194	-0.14081413
46	0xbde18d67	-0.110132985
47	0xbd52818a	-0.05139307
48	0xbc8fe2f3	-0.017564273
49	0x3db35792	0.08756937
50	0x3e524539	0.20534219
51	0x3e4fd8e3	0.2029758
52	0x3e2b2ceb	0.16716354
53	0xbe3ee653	-0.18642549
54	0xbd0c985c	-0.03432499
55	0x3e366f93	0.17816
56	0x3d5684bd	0.052372683
57	0xbbd8ee5e	-0.0066202125
58	0xbb88fb04	-0.004180314
59	0x3e52c0a5	0.205813
60	0x3ea6b607	0.3256075
61	0x3b73afaf	0.0037183573
62	0x3d6e8945	0.05823638
63	0xbe185de3	-0.14879565
64	0xbe4b0845	-0.19827373
65	0xbe890dbe	-0.26768297
66	0x3d81efab	0.06344541
67	0x3d2dc330	0.042422473
68	0x3d21650b	0.039403003
69	0x3e796af2	0.24357203
70	0xbe77028c	-0.24122065
71	0xbe7001ef	-0.23438238
72	0xbe2847b3	-0.16433601
73	0x3e2c1c7d	0.16807742
74	0xbe0e8568	-0.13918078
75	0xbdd2c2e9	-0.102910824
76	0xbdd54a4e	-0.10414563
77	0xbd8c0918	-0.06837672
78	0x3e7322fc	0.23743814
79	0xbe575d8e	-0.21031782
80	0x3e09559b	0.13411562
81	0xbecf929a	-0.40541536
82	0x3de7a7ca	0.113113
83	0xbe064712	-0.13113049
84	0x3d853f7a	0.06506248
85	0x3d8c5cfb	0.06853672
86	0x3cdc8840	0.026920438
87	0x3dea6250	0.11444533
88	0x3e2e87cb	0.17043988
89	0x3d2a25b6	0.04153987
90	0xbd9bcb02	-0.0760708
91	0x3d337a99	0.04381809
92	0xbd8d9d5d	-0.0691478
93	0x3c89e990	0.016835004
94	0xbbac7f8b	-0.0052642277
95	0xbdd1346e	-0.10215078
96	0x3d808e23	0.062771104
97	0xbe8da766	-0.27666777
98	0xbe66156a	-0.22469106
99	0x369f80b0	4.7535505e-06
100	0xbdc07dbb	-0.09398981
101	0xbe9c0fe3	-0.3048087
102	0x3d84ef92	0.06491007
103	0xbd2f0e87	-0.042738464
104	0xbe558496	-0.20851359
105	0xbe1352b8	-0.14387023
106	0x3df56fde	0.119842276
107	0xbe7474a4	-0.2387262
108	0x3e8498ec	0.2589792
109	0x3e43c3a2	0.19117597
110	0x3d9b0575	0.075694
111	0xbdbfdbe3	-0.09368112
112	0x3d7417d1	0.059593026
113	0xbe7bb1e4	-0.24579579
114	0x3db0a9f3	0.08626165
115	0xbdfb8913	-0.12282004
116	0x3e2f5304	0.17121512
117	0xbd6cd140	-0.057816744
118	0xbe88bd7c	-0.26707065
119	0x3d77c6e6	0.06049242
120	0xbd92e4a8	-0.07172519
121	0x3e3b47de	0.18289134
122	0xbd5dd781	-0.0541606
123	0x3eb5c910	0.3550496
124	0x3e81c43b	0.25345024
125	0x3dc4a00d	0.0960084
126	0x3e347005	0.17620857
127	0x3e4eb381	0.20185663
128	0xbd51200d	-0.051055957
129	0xbde3779f	-0.111068
130	0xbe2df941	-0.16989614
131	0x3e1a1566	0.15047225
132	0x3e678988	0.22611058
133	0xbe00e044	-0.1258555
134	0x3e9579fd	0.29194632
135	0x3d4147e7	0.047187712
136	0xbe5e34db	-0.2169985
137	0x3df2fecf	0.11865007
138	0x3e278647	0.16359816
139	0x3dba95c0	0.09110594
140	0x3de908fa	0.11378665
141	0xbd2f69c0	-0.04282546
142	0x3c7bca22	0.015368016
143	0xbdcd6762	-0.10029484
144	0xbe494e8c	-0.1965887
145	0xbd1f674d	-0.038916875
146	0x3e45b307	0.19306575
147	0xbe41aec6	-0.18914327
148	0xbd0ce3f0	-0.034397066
149	0xbd3faebe	-0.046797507
150	0x3e2f4494	0.17116004
151	0x3e77f7eb	0.24215667
152	0xbc691220	-0.014225513
153	0xbdadbabd	-0.08482883
154	0xbe2f892f	-0.17142175
155	0xbe3a6654	-0.18203098
156	0xbd4d72c3	-0.050158273
157	0xbdf81ff9	-0.12115473
158	0xbe114542	-0.14186576
159	0xbe3792a3	-0.17927031
160	0xbc4ce22d	-0.012505096
161	0xbe1915dc	-0.14949745
162	0x3c4f45e4	0.012650941
163	0xbdc9d32a	-0.098547295
164	0xbd9ffc99	-0.07811851
165	0xbeae578f	-0.34051177
166	0xbc01ee6a	-0.0079303775
167	0x3c752b62	0.014963957
168	0xbe2a1132	-0.16608122
169	0x3e304b15	0.17216142
170	0xbe111d48	-0.14171326
171	0x3e8293d4	0.2550341
172	0xbda661f8	-0.08124155
173	0xbdd23f0a	-0.1026593
174	0xbb86fedc	-0.004119737
175	0xbe03c283	-0.12867169
176	0x3c39ed8b	0.011348139
177	0x3ebb2add	0.3655614
178	0xbe39d650	-0.1814816
179	0xbe2abad2	-0.16672829
180	0xbd040ee2	-0.032240756
181	0x3e241f99	0.16027679
182	0x3e141a2c	0.14463109
183	0x3c82a88c	0.01594951
184	0x3da85bf9	0.082206674
185	0x3e096f68	0.13421404
186	0x3dee3913	0.1163198
187	0x3e9fe6a7	0.3123066
188	0x3bce4fa9	0.0062961173
189	0x3d904516	0.07044427
190	0xbd9ec669	-0.077526875
191	0x3dfb9c53	0.12285676
192	0xbe69e1d8	-0.22840059
193	0x3e66d99a	0.22543946
194	0xbe5c82bf	-0.2153425
195	0x3e10ff3a	0.14159861
196	0x3e709254	0.2349332
197	0xbced4e79	-0.028968083
198	0xbd80dde1	-0.0629232
199	0xbd219e06	-0.039457344
200	0x3c81e9ca	0.01585855
201	0xbde84103	-0.11340525
202	0x3e486a45	0.19571789
203	0xbc711ea7	-0.014716781
204	0xbe588c5e	-0.21147296
205	0xbd91739d	-0.071021296
206	0xbd942c4c	-0.072350115
207	0xba5db1e6	-0.000845699
208	0x3d886cd2	0.06661381
209	0xbe3864c0	-0.18007183
210	0xbd95c320	-0.07312608
211	0xbe31feac	-0.17382306
212	0xbd9ff212	-0.07809843
213	0x3e290b08	0.16508114
214	0xbcb70ee2	-0.022345964
215	0x3e4ae4ab	0.19813792
216	0x3e55c085	0.20874222
217	0xbdde4584	-0.10853103
218	0x3e159364	0.14607006
219	0x3d9810f2	0.07425107
220	0xbb0fdd4e	-0.0021951976
221	0x3e68f9a6	0.22751483
222	0x3e8beb01	0.2732773
223	0xbe7a94bc	-0.244708
224	0x3e320927	0.17386304
225	0x3dc4cc5f	0.09609293
226	0x3db2ec3b	0.08736464
227	0x3e5ffcbc	0.21873754
228	0x3db6e762	0.089308515
229	0x3d5668cc	0.052346036
230	0x3e94b88d	0.2904705
231	0xbd77c31e	-0.060488813
232	0xbdde6c6f	-0.10860526
233	0x3dc522ee	0.09625803
234	0xbdb1f0aa	-0.08688481
235	0xbd699f6b	-0.0570368
236	0xbddcae22	-0.10775401
237	0x3e8a0075	0.26953474
238	0xbe34ed67	-0.17668687
239	0x3e4dafb6	0.2008656
240	0x3db6d96e	0.0892819
241	0x3e5e4a15	0.21707948
242	0x3d1d205a	0.03836093
243	0x3d57ac5e	0.052654617
244	0xbd66f224	-0.056383267
245	0xbe597b6a	-0.21238485
246	0x3e31bf5d	0.17358156
247	0x3e2af181	0.16693689
248	0x3e426661	0.18984367
249	0xbe3d2db7	-0.1847447
250	0x3e3a26bf	0.18178843
251	0xbda7bd1e	-0.08190368
252	0x3ec26309	0.37966183
253	0x39527846	0.00020071966
254	0x3ce828db	0.028339794
255	0xbdf273e5	-0.118385114

fc2.bias f4 [32]
0	0x3b0883f2	0.0020830599
1	0xba2c3270	-0.0006568795
2	0xba2ee761	-0.00066720514
3	0xbb324dbd	-0.002720698
4	0xba499f1c	-0.00076912506
5	0x3a88d574	0.001043959
6	0x3befa1ab	0.0073129735
7	0xba0226ae	-0.000496487
8	0xbbf830c3	-0.007574172
9	0xbb454343	-0.0030099906
10	0xbc96ff0f	-0.018432168
11	0x3c41c73d	0.011827287
12	0xbb9527c8	-0.0045518614
13	0x3baf54c0	0.005350679
14	0x3a8f6a68	0.0010941746
15	0x3b965d1e	0.004588737
16	0xbb0e703f	-0.0021734384
17	0x3b9a2797	0.0047044265
18	0x3a138b10	0.0005628327
19	0xbb28440e	-0.002567533
20	0xbad0db4b	-0.0015934495
21	0x3b2259eb	0.0024772834
22	0x3bc5faa2	0.0060418407
23	0xbaff8a19	-0.0019496112
24	0xbb859a49	-0.00407723
25	0xba1015fa	-0.0005496439
26	0x3c05d7b7	0.008169106
27	0xbb1075d5	-0.002204289
28	0x3aee3dbe	0.001817636
29	0x3c87ae65	0.01656265
30	0xbb4c237e	-0.0031149085
31	0x39a1faae	0.00030895084

bn2.weight f4 [32]
0	0x3f8aa289	1.0830852
1	0x3f77b743	0.9676401
2	0x3f80de30	1.0067806
3	0x3f80d679	1.0065452
4	0x3f801d1c	1.0008883
5	0x3f835852	1.0261328
6	0x3f84eb45	1.0384299
7	0x3f6f6451	0.93512446
8	0x3f64d63b	0.8938939
9	0x3f7c9d54	0.98677564
10	0x3f80d741	1.006569
11	0x3f83530e	1.0259721
12	0x3f8475af	1.0348414
13	0x3f691865	0.9105285
14	0x3f87b871	1.0603162
15	0x3f83a258	1.0283918
16	0x3f780024	0.96875215
17	0x3f8480be	1.0351789
18	0x3f81df44	1.014626
19	0x3f6cd99c	0.92519546
20	0x3f854a8a	1.0413373
21	0x3f7b3df5	0.98141414
22	0x3f729ad1	0.9476748
23	0x3f7b8b20	0.9825916
24	0x3f7d45d3	0.9893467
25	0x3f7dc9d1	0.9913607
26	0x3f972f2d	1.1811272
27	0x3f709932	0.9398376
28	0x3f6d028e	0.92582023
29	0x3f8349e6	1.0256927
30	0x3f73991f	0.9515552
31	0x3f83d6e4	1.0299954

bn2.bias f4 [32]
0	0x3c68bc06	0.0142049845
1	0xbd91188f	-0.07084762
2	0x3d821414	0.06351486
3	0xbd8c7d8e	-0.06859885
4	0x3c507baa	0.012724796
5	0xbe14f1b3	-0.14545326
6	0x3dcdd9fc	0.10051343
7	0x3d61a015	0.055084307
8	0xbdc3ecdb	-0.09566661
9	0x3d8c34c6	0.06846003
10	0xbe3840ff	-0.17993544
11	0xbdfede3f	-0.12444734
12	0xbd8b18be	-0.067918286
13	0xbddbf95d	-0.10740922
14	0x3d0f7bcd	0.035030175
15	0x3da1c23a	0.07898374
16	0x3d24f511	0.040272776
17	0x3df7b632	0.12095298
18	0x3e01e5a7	0.12685262
19	0xbd3663bf	-0.04452872
20	0xbe006519	-0.12538566
21	0xbe2c4f71	-0.1682718
22	0x3c00a1b4	0.007851053
23	0xbd4efd8e	-0.050534777
24	0x3e3eb0b7	0.18622099
25	0xbd30fb7b	-0.04320858
26	0x3e10d684	0.14144331
27	0xbce20e70	-0.027594775
28	0xbe60bd18	-0.21947134
29	0xbde0aff2	-0.10971059
30	0xbdbd8a74	-0.092549235
31	0xbc6b9254	-0.014378149

bn2.running_mean f4 [32]
0	0xbdc85b0e	-0.09782992
1	0xbee4edcc	-0.44712675
2	0xbe83dfb6	-0.25756615
3	0x3ee69bd6	0.45040768
4	0xbece41cf	-0.40284583
5	0xbcccc76c	-0.024997436
6	0xbeaed730	-0.3414855
7	0x3ec752d1	0.3893037
8	0x3df1caf4	0.11806288
9	0xbed46500	-0.41483307
10	0xbec7a520	-0.38993168
11	0x3ef76875	0.48321882
12	0xbdad42e2	-0.084600225
13	0x3e55324b	0.20819966
14	0x3eebe841	0.46075633
15	0x3ea95cd2	0.3307863
16	0x3d5d4036	0.054016314
17	0xbf4cc870	-0.79993343
18	0xbd332f01	-0.043746
19	0x3f02baed	0.51066476
20	0xbec53f2d	-0.38524762
21	0xbdfa85c9	-0.12232549
22	0x3ed2b1ea	0.41151363
23	0x3e4c1146	0.19928464
24	0x3efa8e52	0.48936707
25	0xbe9a8b53	-0.3018442
26	0x3d556988	0.052102596
27	0xbf0ad393	-0.54229087
28	0xbd1e0651	-0.038580243
29	0x3ee02199	0.43775633
30	0xbe4b6ba1	-0.19865276
31	0x3e713484	0.2355519

bn2.running_var f4 [32]
0	0x3e82a444	0.2551595
1	0x3e0966e3	0.13418154
2	0x3decf303	0.11569788
3	0x3e1116cf	0.14168857
4	0x3dcd5ae4	0.10027102
5	0x3d80d61f	0.0629084
6	0x3e28ac3c	0.16471952
7	0x3e2a9cc3	0.16661362
8	0x3d8f1f21	0.06988359
9	0x3e1b9414	0.15193206
10	0x3d7e8c11	0.062145296
11	0x3df86f1b	0.12130567
12	0x3da3879f	0.07984852
13	0x3d98a138	0.07452625
14	0x3e250df6	0.16118607
15	0x3e1a95eb	0.15096252
16	0x3de49691	0.11161531
17	0x3deb295e	0.114824995
18	0x3d94d985	0.07268051
19	0x3db789f5	0.0896186
20	0x3dc0b785	0.094100036
21	0x3d834aa6	0.064107224
22	0x3d7dfe69	0.062010203
23	0x3dabd34e	0.083899125
24	0x3e3c2788	0.18374455
25	0x3e1f1f8b	0.15539376
26	0x3e3da03b	0.18518154
27	0x3e41084d	0.18850823
28	0x3dfb321c	0.12265417
29	0x3d82ce2f	0.06386983
30	0x3e1c8fda	0.1528925
31	0x3e0a3967	0.1349846

fc3.weight f4 [64, 32]
0	0x3db4f134	0.08835068
1	0x3e14b2f7	0.14521395
2	0x3dad52b6	0.084630415
3	0xbd844df6	-0.06460182
4	0x3e152963	0.14566569
5	0x3e2019de	0.15634868
6	0xbe34cf0c	-0.17657107
7	0x3d4ee902	0.050515182
8	0x3dd5f5fb	0.10447308
9	0x3dc8e56b	0.09809383
10	0xbdb228ae	-0.08699165
11	0x3e4457f0	0.1917417
12	0xbe4bb03a	-0.19891444
13	0x3dae38df	0.08506941
14	0xbd5732b7	-0.0525386
15	0xbdc64195	-0.096804775
16	0xbdb7e23d	-0.089786984
17	0x3d82b0df	0.06381392
18	0x3d92e49f	0.07172512
19	0xbd831bbd	-0.06401775
20	0x3d8b9df3	0.06817236
21	0xbd441639	-0.047872756
22	0xbdf40055	-0.11914126
23	0x3da2ff78	0.07958883
24	0xbd5674e5	-0.052357573
25	0x3d8a7914	0.06761375
26	0xbe2e6f9c	-0.17034763
27	0xbbaf5fc0	-0.0053519905
28	0xbca633ee	-0.020288434
29	0x3d6c2066	0.057648085
30	0x3dfcd7ff	0.123458855
31	0xbcc75ae9	-0.024335342
32	0x3dba50a0	0.09097409
33	0xbdb284ac	-0.087167114
34	0x3e071a7c	0.13193697
35	0xbde55769	-0.11198313
36	0xbd82eb8d	-0.06392584
37	0xbcf96645	-0.030444274
38	0xbe25e4b6	-0.16200528
39	0xbe255f37	-0.16149603
40	0xbe3a111d	-0.1817059
41	0xbce1b363	-0.027551359
42	0xbea0362a	-0.31291324
43	0xbd50bde0	-0.05096233
44	0xbd8c86ab	-0.068616234
45	0xbd4e564e	-0.050375275
46	0x3da63839	0.08116192
47	0xbd969cf5	-0.07354156
48	0xbe539b07	-0.20664607
49	0xbe0e7c67	-0.13914643
50	0x3e09e9f1	0.13468148
51	0xbe6b6218	-0.22986639
52	0x3e04b9bf	0.12961482
53	0xbdcb4530	-0.09925306
54	0x3d1e295d	0.038613666
55	0xbe052ca4	-0.1300531
56	0xbdcec2a8	-0.100957215
57	0xbe1f78fd	-0.15573497
58	0xbd127de8	-0.035764605
59	0xbdd63202	-0.10458757
60	0xbdc9b1d7	-0.098483734
61	0x3e1d483a	0.15359583
62	0xbc8345ac	-0.016024433
63	0x3e5c2fa8	0.21502554
64	0xbe171d5c	-0.14757293
65	0x3c00ce44	0.007861678
66	0xbe9fee8f	-0.31236693
67	0x3e2c3a33	0.16819076
68	0xbd7df0b9	-0.06199715
69	0xbb4425a5	-0.0029929664
70	0x3dbe9f80	0.09307766
71	0x3d6a5035	0.057205398
72	0x3da65be9	0.08122999
73	0x3d9c7455	0.07639376
74	0xbe48e286	-0.19617662
75	0xbcd838f3	-0.026394343
76	0xbe812906	-0.2522661
77	0x3db145bb	0.08655878
78	0x3e2d5cd1	0.16929938
79	0x3dadca0c	0.08485803
80	0x3dc0fc3f	0.09423112
81	0xbdc91e13	-0.09820189
82	0x3e6d457f	0.23171042
83	0x3b5c85ac	0.003364901
84	0x3daad372	0.08341111
85	0x3d89cba7	0.06728297
86	0xbe77fc32	-0.24217299
87	0x3df2b0e6	0.11850147
88	0x3c0b75c0	0.0085119605
89	0xbe480ea5	-0.19536836
90	0x3cfadd6b	0.030623158
91	0xbe8702c8	-0.2636931
92	0x3e1eb47e	0.1549854
93	0xbd4452d5	-0.047930557
94	0xbe171b7d	-0.1475658
95	0xbdb6fe9f	-0.08935284
96	0x3ea69da3	0.32542142
97	0x3e4bce3a	0.19902888
98	0x3e0b0abc	0.13578314
99	0x3e1802ee	0.14844868
100	0x3cb912ca	0.022591967
101	0xbe4fd61b	-0.20296519
102	0x3c6335dd	0.0138678225
103	0xbe1167b8	-0.14199722
104	0xbe402736	-0.18764958
105	0x3d319b88	0.043361217
106	0xbc0dc263	-0.008652302
107	0xbd43d3c6	-0.047809385
108	0x3e1525e1	0.14565231
109	0x3db0cc90	0.08632767
110	0xbd99f0f4	-0.07516661
111	0x3cdf4433	0.0272542
112	0xbd1e838e	-0.03869968
113	0x3dae6698	0.08515662
114	0xbd4b27b8	-0.049598426
115	0xbdfe917c	-0.12430093
116	0xbde73148	-0.112886965
117	0xbd8f7938	-0.070055425
118	0xbd8cb94b	-0.06871279
119	0xbc8a729d	-0.016900355
120	0xbe09b16e	-0.1344659
121	0x3cab85a3	0.020937746
122	0xbdaf39e9	-0.08555967
123	0x3e39af61	0.18133308
124	0xbdd92ca7	-0.1060422
125	0x3e5eb7b7	0.21749769
126	0xbd8ba50b	-0.06818589
127	0x3e566dc5	0.20940311
128	0xbe3ae315	-0.18250687
129	0x3db843b6	0.0899729
130	0x3d69b09d	0.057053197
131	0x3bbf660d	0.005841023
132	0x3df90471	0.1215905
133	0x3ddb409a	0.10705681
134	0xbcf47fc9	-0.029846089
135	0xbdeb5bbd	-0.11492107
136	0x3db44f38	0.08804172
137	0xbdea56d5	-0.11442343
138	0xbd18418d	-0.03717189
139	0x3e91008a	0.28320724
140	0x3e67fe51	0.22655608
141	0x3d5b3ad4	0.0535229
142	0xbd4af245	-0.049547452
143	0xbe33819b	-0.1752991
144	0xbdce42be	-0.10071324
145	0xbe4ce387	-0.2000867
146	0x3d0e7f5e	0.034789436
147	0x3dbd6a19	0.09248752
148	0x3d94573c	0.07243201
149	0x3d53a252	0.051668473
150	0x3e0b27a5	0.13589342
151	0xbc2e4690	-0.010636941
152	0x3bc9b50a	0.0061556147
153	0x3d9c4163	0.07629659
154	0xbce8a275	-0.028397778
155	0x3e2aa3a1	0.16663982
156	0xbb9a78ca	-0.004714106
157	0x3df43c6c	0.11925587
158	0xbdece74b	-0.11567553
159	0x3c9de666	0.019274902
160	0x3cc89b7f	0.024488209
161	0xbe1ca500	-0.15297318
162	0x3e11409a	0.141848
163	0xbd1bec1c	-0.03806697
164	0xbd7c1faa	-0.061553635
165	0x3c8ebefb	0.017425051
166	0xbd3ff1a8	-0.04686132
167	0xbe773b5c	-0.24143738
168	0x3d206f35	0.039168555
169	0xbe21c50d	-0.15797825
170	0x3d7921bb	0.060823184
171	0xbe90d777	-0.28289387
172	0x3e0aa91d	0.13541074
173	0x3e1e3f59	0.15453853
174	0x3cd5a831	0.026081176
175	0xbd90facf	-0.07079088
176	0xbe6e546b	-0.2327439
177	0x3d763bed	0.060115743
178	0x3dd181db	0.10229846
179	0xbd00818b	-0.03137354
180	0xbe5e5fb6	-0.21716198
181	0x3d97865a	0.073986724
182	0xbd36a21a	-0.044588186
183	0xbe3d5475	-0.18489249
184	0xbd1dc0e5	-0.038514037
185	0xbe5c8467	-0.21534882
186	0xbe03205b	-0.12805311
187	0xbdf6a294	-0.12042728
188	0x3e0e925f	0.13923024
189	0xbe3265ad	-0.17421599
190	0x3cc5266c	0.024066173
191	0x3d51b2b5	0.05119582
192	0x3de37fee	0.11108385
193	0x3e1b19ff	0.15146635
194	0xbcd2123d	-0.025643462
195	0x3d82a2a5	0.06378678
196	0xbd56ba93	-0.052424025
197	0x3d4dae2f	0.050214943
198	0x3e09e05f	0.13464497
199	0x3e8ba7db	0.272765
200	0x3e35d9af	0.17758821
201	0x3dcce152	0.10003914
202	0xbcc3ef05	-0.023917684
203	0xbcfbb878	-0.03072761
204	0xbdb6d833	-0.089279555
205	0xbdabf5df	-0.083965056
206	0x3e8054a2	0.2506457
207	0xbdb467c2	-0.08808853
208	0xbd344b3b	-0.044017058
209	0xbafbbcd5	-0.0019206057
210	0x3dc0d8b1	0.094163306
211	0xbe225835	-0.15853961
212	0xbd16e2cd	-0.036837388
213	0x3e09f07b	0.13470642
214	0xbe7bbbf6	-0.2458342
215	0xbd7ce5d5	-0.061742622
216	0x3deb9d43	0.11504605
217	0x3e0a8e71	0.135309
218	0x3db8da75	0.09026042
219	0x3b20fc35	0.002456439
220	0xbe70312b	-0.23456256
221	0x3d9775a2	0.073954836
222	0x3dde2faa	0.10848935
223	0x3e01c7ec	0.1267392
224	0xbd7214a0	-0.0591017
225	0xbdb5b967	-0.08873253
226	0x3d386495	0.045017797
227	0x3d9090c4	0.07058862
228	0xbcbc5287	-0.02298857
229	0x3e110596	0.14162287
230	0x3d1b58eb	0.037926596
231	0xbdb37265	-0.087620534
232	0x3e053067	0.13006745
233	0x3da0e7f9	0.07856745
234	0x3d0eb4ec	0.03484051
235	0xbe0759bb	-0.13217823
236	0xbaf3da76	-0.0018604535
237	0x3e16e412	0.1473544
238	0xbe402151	-0.18762709
239	0x3d996817	0.07490557
240	0x3da58a81	0.08083058
241	0x3e8cd095	0.27502885
242	0xbe620744	-0.22073084
243	0x3be4fc4a	0.006988083
244	0x3e721b55	0.23643239
245	0xbe83973d	-0.25701323
246	0xbd090bec	-0.033458635
247	0xbe64213d	-0.22278304
248	0x3db9d4cf	0.09073793
249	0x3cfc7b4a	0.030820508
250	0xbdea9f2d	-0.114561416
251	0x3df7b084	0.120942146
252	0x3ce70aa5	0.028203318
253	0xbe3a2f55	-0.18182118
254	0xbe258e76	-0.16167626
255	0x3d8edc61	0.06975628

fc3.bias f4 [64]
0	0xbb52d679	-0.0032171293
1	0xbb4e231d	-0.0031454035
2	0x3b4133f2	0.0029480425
3	0x3b8a0a13	0.0042126267
4	0x3b1ee0ff	0.0024242995
5	0xbb2dbc98	-0.0026510116
6	0x3b84434e	0.0040363437
7	0xba51e44f	-0.0008006738
8	0x3bd55381	0.0065101986
9	0xba1c84a7	-0.00059706945
10	0x3b8f6a78	0.0043767057
11	0xbb5d7613	-0.0033792302
12	0x39c10f5b	0.0003682327
13	0xbb02a4a2	-0.0019934555
14	0xbbec133f	-0.0072044428
15	0x3a345288	0.0006878753
16	0xbbb685c3	-0.005570145
17	0xbb3bd612	-0.0028661531
18	0xba324df6	-0.0006801778
19	0x3a8503e2	0.0010148252
20	0xba974f4b	-0.0011544017
21	0x391fb1cc	0.00015229656
22	0x3b396ae2	0.0028292467
23	0xbade513c	-0.0016961466
24	0x3bf25912	0.007395872
25	0x3ba10d96	0.0049149496
26	0xba797eb6	-0.00095174776
27	0xbbb5eb74	-0.00555175
28	0x3acf7bee	0.0015829781
29	0xbb3754ed	-0.0027974204
30	0xbb9b5891	-0.0047407825
31	0x3ba228d2	0.004948714
32	0xbb5c9dd4	-0.0033663409
33	0x3b2c50ac	0.0026293201
34	0xbb81693a	-0.0039493116
35	0x3a80cc7f	0.000982657
36	0xbb07989e	-0.0020690332
37	0xba42a22c	-0.0007424678
38	0x39faed52	0.00047860533
39	0x3b110d82	0.0022133295
40	0xbb64f166	-0.0034933924
41	0xbb6fdb56	-0.003659924
42	0xbad7d45e	-0.0016466489
43	0xbb8736fd	-0.004126428
44	0x3b2e056a	0.002655352
45	0xbb0b5c40	-0.0021264702
46	0xbbc3a557	-0.005970638
47	0x3a97b9d9	0.0011575773
48	0x3a9df5e8	0.0012051435
49	0xbbd64a86	-0.0065396456
50	0x38868630	6.414612e-05
51	0x3b110103	0.0022125847
52	0xbb468806	-0.0030293479
53	0x3bb5ebe8	0.005551804
54	0xb988b8d0	-0.00026077637
55	0xbb6621c5	-0.0035115343
56	0xbb83b082	-0.004018844
57	0xbbd94bf8	-0.0066313706
58	0x3b5a8bc6	0.0033347472
59	0xb90cf4e4	-0.0001344267
60	0x3b59f2ea	0.003325636
61	0xbb226522	-0.0024779518
62	0xba06fce9	-0.0005149381
63	0x3baf238d	0.005344814

bn3.weight f4 [64]
0	0x3f6cf743	0.9256479
1	0x3f821d68	1.0165224
2	0x3f728689	0.94736534
3	0x3f817fcc	1.0117126
4	0x3f73c788	0.95226336
5	0x3f837430	1.0269833
6	0x3f871ce6	1.0555694
7	0x3f7ab056	0.9792532
8	0x3f8192e2	1.012295
9	0x3f6d7fa0	0.92772865
10	0x3f837d8e	1.0272691
11	0x3f723ac9	0.9462095
12	0x3f634685	0.8877948
13	0x3f71675d	0.94298345
14	0x3f7ac5d0	0.9795809
15	0x3f8cf861	1.1013299
16	0x3f703373	0.93828505
17	0x3f919cf4	1.1376023
18	0x3f7a8634	0.9786103
19	0x3f459095	0.7717374
20	0x3f8a75f7	1.081725
21	0x3f85758e	1.04265
22	0x3f78a836	0.9713167
23	0x3f61bbe5	0.8817733
24	0x3f8a0522	1.0782816
25	0x3f6fa41e	0.936098
26	0x3f8b97d6	1.0905712
27	0x3f6432c8	0.89139986
28	0x3f85b49c	1.0445743
29	0x3f748106	0.95509374
30	0x3f834a88	1.025712
31	0x3f8370ff	1.0268859
32	0x3f76a483	0.96344775
33	0x3f6694ed	0.9007099
34	0x3f8b71ff	1.0894164
35	0x3f6d775c	0.9276025
36	0x3f6965cc	0.91170955
37	0x3f85cef8	1.0453787
38	0x3f864cdf	1.0492209
39	0x3f85ed1f	1.0462989
40	0x3f8c7615	1.0973536
41	0x3f86401f	1.0488318
42	0x3f704580	0.9385605
43	0x3f793fb2	0.97362816
44	0x3f80d511	1.0065023
45	0x3f78a035	0.97119457
46	0x3f85259c	1.0402102
47	0x3f7f962d	0.99838525
48	0x3f5d6dc4	0.86495614
49	0x3f794163	0.973654
50	0x3f6f2f75	0.9343179
51	0x3f7ffe6e	0.99997604
52	0x3f7797a4	0.9671576
53	0x3f72e931	0.9488707
54	0x3f807809	1.0036632
55	0x3f79609d	0.97413045
56	0x3f80681e	1.0031774
57	0x3f99bf63	1.2011532
58	0x3f85188a	1.0398114
59	0x3f807906	1.0036933
60	0x3f7cf214	0.9880688
61	0x3f7b0c86	0.98065984
62	0x3f7ee8f8	0.9957423
63	0x3f7b4604	0.9815371

bn3.bias f4 [64]
0	0xbe41daa2	-0.18931058
1	0xbd46548e	-0.04842048
2	0xbcbe2fb3	-0.023216104
3	0x39e63998	0.0004391193
4	0xbe709596	-0.23494563
5	0x3c54f83f	0.01299864
6	0xbdde9d93	-0.10869899
7	0xbdf35977	-0.118822984
8	0xbe0f88ac	-0.1401698
9	0x3db9f804	0.09080508
10	0xbe020f3c	-0.12701124
11	0xbd8df6f0	-0.06931865
12	0xbe865080	-0.26233292
13	0xbe297307	-0.16547786
14	0xbe3f78c5	-0.18698414
15	0x3c8e7a2c	0.01739224
16	0xbe007ed3	-0.1254838
17	0xbd9cb024	-0.07650784
18	0xbe671fca	-0.2257072
19	0xbe7367ba	-0.23770037
20	0x3cf590e2	0.029976312
21	0xbc0fbf16	-0.008773586
22	0xbe0988d1	-0.13431098
23	0xbdd82414	-0.10553756
24	0xbd6536fc	-0.05596064
25	0xbdecfa72	-0.11571206
26	0xbde9ad17	-0.114099674
27	0xbd0c188d	-0.0342031
28	0xbde1fcd1	-0.11034549
29	0xbe288970	-0.16458678
30	0xbd772bbc	-0.060344443
31	0xbd14de9b	-0.036345106
32	0xbe0aeee0	-0.13567686
33	0xbe202a6f	-0.15641187
34	0xbd034f01	-0.032057766
35	0xbe290d3e	-0.16508958
36	0xbe6b5c20	-0.22984362
37	0x3d316d77	0.043317284
38	0xbd94b244	-0.07260564
39	0xbd0072fb	-0.031359654
40	0xbe255665	-0.16146238
41	0xbd96149d	-0.073281504
42	0xbdd4995d	-0.10380814
43	0xbe102651	-0.14077117
44	0xbd70f17a	-0.05882404
45	0x3d783078	0.0605931
46	0xbde56ef8	-0.11202806
47	0xbdf6cc10	-0.120506406
48	0xbe93ff67	-0.28905794
49	0xbdc40029	-0.09570343
50	0xbe2044f2	-0.156513
51	0xbdedb12d	-0.11606059
52	0xbe31f791	-0.17379595
53	0xbe87face	-0.26558536
54	0xbd73c234	-0.05951138
55	0xbd8e0d8c	-0.069361776
56	0xbddd75c0	-0.10813475
57	0xbcf56462	-0.029955093
58	0xbd82e9df	-0.063922636
59	0xbd9e6b13	-0.077352665
60	0xbe2a5f4c	-0.16637915
61	0xbd8fdbc4	-0.07024339
62	0xbda5a36b	-0.0808781
63	0xbd2dbe40	-0.042417765

bn3.running_mean f4 [64]
0	0x3dd65698	0.10465735
1	0xbf1835cc	-0.5945709
2	0xbe227236	-0.1586388
3	0x3e1d8496	0.15382609
4	0x3e27b567	0.16377793
5	0xbf10cfc0	-0.56567
6	0x3eeca566	0.4621994
7	0xbc84611a	-0.016159583
8	0x3e955bb7	0.29171535
9	0xbf14d429	-0.5813623
10	0x3dd06b7b	0.1017675
11	0x3e7d7c95	0.24754556
12	0x3e5eb5a0	0.21748972
13	0xbe47d11a	-0.1951336
14	0x3dc39872	0.09550561
15	0xbe2941e4	-0.16529042
16	0xbebae3d3	-0.3650194
17	0xbde18ee6	-0.11013584
18	0x3e8c255f	0.27372262
19	0x3e86f9f6	0.2636258
20	0xbddb114e	-0.1069666
21	0xbed5b378	-0.41738486
22	0xbd989539	-0.07450337
23	0x3dc4faf9	0.09618182
24	0xbe1371ff	-0.14398955
25	0x3dae7cbf	0.08519887
26	0x3e8f60f4	0.28003657
27	0xbef7a406	-0.48367327
28	0xbe9b532d	-0.30336896
29	0xbe3f364f	-0.18673061
30	0xbdffbcd5	-0.12487189
31	0x3db443b4	0.08801976
32	0x3e7ebb25	0.24876077
33	0xbed60739	-0.41802385
34	0xbe9cdd38	-0.30637527
35	0x3e2b41c6	0.1672431
36	0xbd22cd9f	-0.039746877
37	0xbdfe20f6	-0.124086305
38	0x3ebd3fa3	0.36962613
39	0xbeae2cce	-0.34018558
40	0x3e33540e	0.17512533
41	0xbf1788f0	-0.59193325
42	0x3e982286	0.2971384
43	0x3b06862d	0.0020526752
44	0x3e3e514b	0.18585698
45	0x3f17ed21	0.59346205
46	0x3ca4a3db	0.020097664
47	0xbe12c4d2	-0.14332893
48	0x3f1c604f	0.61084455
49	0xbe803eb5	-0.25047842
50	0x3ebde688	0.37089944
51	0xbd0c350e	-0.034230284
52	0x3c8d1fb4	0.017227031
53	0x3f1a8ba7	0.6036934
54	0xbeec7a1d	-0.46186915
55	0xbe81deb7	-0.2536523
56	0xbedea66b	-0.43486342
57	0xbe02680d	-0.12735005
58	0x3e415a13	0.18882017
59	0xbe70111c	-0.23444027
60	0xbd3e0fe4	-0.046401873
61	0xbe071c4b	-0.13194387
62	0x3dc17997	0.094470195
63	0xbd73761f	-0.05943882

bn3.running_var f4 [64]
0	0x3e0ea871	0.13931443
1	0x3e9bee56	0.30455273
2	0x3ec12950	0.3772683
3	0x3dd2e9b2	0.1029848
4	0x3e212421	0.15736438
5	0x3e1b0803	0.15139775
6	0x3e5b067b	0.21389191
7	0x3e7d12b5	0.24714167
8	0x3e81e5c4	0.2537061
9	0x3e37f422	0.17964223
10	0x3d83d4dc	0.06437084
11	0x3dbfc159	0.0936305
12	0x3da67d0c	0.081293195
13	0x3e27bb74	0.16380101
14	0x3df95dda	0.12176104
15	0x3e1e1614	0.1543811
16	0x3e2f52db	0.1712145
17	0x3e18292a	0.14859453
18	0x3dc4d1fe	0.09610365
19	0x3d8fb9dd	0.070178725
20	0x3e5c804a	0.21533313
21	0x3dc503ed	0.096198894
22	0x3de89b80	0.11357784
23	0x3dd90486	0.10596566
24	0x3da79ca6	0.08184175
25	0x3e310e83	0.17290692
26	0x3e0ff713	0.14059095
27	0x3e9627f9	0.29327372
28	0x3e2d1401	0.16902162
29	0x3db80228	0.08984786
30	0x3e682589	0.22670569
31	0x3d936f42	0.07198955
32	0x3ec17b52	0.37789398
33	0x3e1c1522	0.15242437
34	0x3db1e81f	0.08686852
35	0x3e1e6584	0.15468413
36	0x3e1e5041	0.15460302
37	0x3e2a3efb	0.16625588
38	0x3e462516	0.19350085
39	0x3e43553d	0.19075485
40	0x3e218371	0.15772797
41	0x3ea06dd8	0.31333804
42	0x3e910781	0.28326038
43	0x3e27a08f	0.16369842
44	0x3e5bcb07	0.21464168
45	0x3e57a014	0.21057159
46	0x3e813076	0.25232285
47	0x3e1e7ef2	0.15478113
48	0x3da89fe8	0.08233625
49	0x3dd2674f	0.10273611
50	0x3e6baecd	0.230159
51	0x3e1bb44a	0.15205494
52	0x3dce9033	0.100860976
53	0x3df8f9d3	0.12157025
54	0x3e888116	0.26660985
55	0x3e360953	0.17776994
56	0x3e084ba5	0.13310106
57	0x3df6aeb6	0.12045042
58	0x3d84d8fb	0.06486698
59	0x3e29082d	0.16507025
60	0x3de1fa08	0.11034018
61	0x3e351e09	0.17687239
62	0x3e6ea5e2	0.23305467
63	0x3e86dd88	0.2634089

fc4.weight f4 [128, 64]
0	0xbe0e1b34	-0.13877565
1	0x3d55e727	0.052222397
2	0x3db6bce6	0.08922748
3	0xbdd93771	-0.10606278
4	0xbd10c636	-0.03534528
5	0xbca948ea	-0.020664651
6	0x3ddfa98b	0.1092101
7	0xbe2efad0	-0.17087865
8	0x3d7dd6b1	0.061972324
9	0xbdbbee4d	-0.09176312
10	0xbe02effb	-0.12786858
11	0x3d1109cc	0.035409734
12	0x3da4c97d	0.08046243
13	0x3c24188d	0.010015619
14	0xbcc3c92f	-0.023899643
15	0x3e0f80f0	0.1401403
16	0x3c9cfd04	0.019163616
17	0x3d827ffd	0.06372068
18	0x3e16c94d	0.14725228
19	0x3d9cf6ac	0.076642364
20	0x3de94f9a	0.11392136
21	0xbe3006f8	-0.17190158
22	0xbd730201	-0.059328083
23	0x3d8a6de0	0.06759238
24	0x3e27ee0b	0.163994
25	0x3dcd9735	0.10038606
26	0x3d9b2417	0.07575243
27	0x3d94d42c	0.07267031
28	0xbb113ce9	-0.002216155
29	0x3d53f08d	0.05174308
30	0x3e3702c5	0.1787215
31	0x3e123025	0.14276178
32	0x3d6ac531	0.057316963
33	0xbc91558a	-0.017740984
34	0xbd586b6d	-0.052836824
35	0xbdd2e46d	-0.10297475
36	0x3c9e2df2	0.019309018
37	0x3e73e67c	0.23818392
38	0x3ccf55ba	0.025309432
39	0x3d9b4085	0.075806655
40	0xbdd232df	-0.10263609
41	0x3d417215	0.047227938
42	0x3bc8e938	0.0061313175
43	0x3dbe495b	0.09291335
44	0x3d18471d	0.037177194
45	0xbddec0b0	-0.10876596
46	0xbe7c63ea	-0.24647489
47	0xbe3f05f4	-0.18654615
48	0xbe0814b9	-0.13289155
49	0x3de7694b	0.1129938
50	0x3d817cbb	0.063226186
51	0xbe4ce7f5	-0.2001036
52	0x3e125bf4	0.1429289
53	0x3dbeba82	0.09312917
54	0x3db7db5e	0.08977388
55	0xbdeaef4f	-0.11471426
56	0xbdd7d99a	-0.10539551
57	0xbe17a826	-0.14810237
58	0xbe2226ef	-0.15835164
59	0x3e182f94	0.148619
60	0xbdd26f3d	-0.10275123
61	0xbd4d9fbc	-0.050201163
62	0x3cbd32c1	0.02309549
63	0x3dc18f57	0.09451168
64	0x3de56a34	0.11201897
65	0xbcd1dbbd	-0.025617475
66	0x3de9cc66	0.11415939
67	0x3d890929	0.066912
68	0x3d332bc2	0.043742903
69	0xbdcd3e04	-0.10021594
70	0xbe5ff82f	-0.21872018
71	0x3d9a35fc	0.07529828
72	0xbda93d6b	-0.08263668
73	0x3d1d2bd6	0.038371883
74	0xbe2e17c7	-0.17001258
75	0xbd7d7ba3	-0.061885487
76	0xbbb4767d	-0.005507289
77	0xbd5105d0	-0.051030934
78	0x3dec5ed7	0.11541527
79	0xbe0bdaf9	-0.1365775
80	0x3e0c1f5c	0.13683838
81	0x3a5e57c2	0.0008481705
82	0xbd6ab443	-0.057300817
83	0x3b5e5715	0.0033926417
84	0xbd28389a	-0.041069604
85	0xbdba9848	-0.091110766
86	0x3e2493fe	0.1607208
87	0xbd8e1b21	-0.06938768
88	0xbe1afb00	-0.15134811
89	0x3e1a8758	0.15090692
90	0x3dd6faab	0.1049703
91	0x3e3359e0	0.17514753
92	0x3d194c5e	0.037426345
93	0xbd90fe15	-0.07079712
94	0x3e209a24	0.156838
95	0xbb3885eb	-0.0028155993
96	0xbc89e853	-0.016834414
97	0xbe193c88	-0.14964497
98	0xbdab5d94	-0.08367458
99	0xbde22117	-0.11041468
100	0x3e1b92c6	0.15192708
101	0x3da9653a	0.082712606
102	0xbd7ac1e5	-0.06122007
103	0x3d1c873e	0.038214915
104	0x3d881a47	0.06645637
105	0xbe826887	-0.25470373
106	0x3d91e147	0.07123046
107	0xbccca3ec	-0.024980508
108	0x3dfba2ea	0.12286933
109	0x3b99d796	0.0046948893
110	0x3cbf7e23	0.023375576
111	0xbd9bbcc8	-0.076043665
112	0x3dfbfc79	0.12304015
113	0x3d3024c9	0.04300383
114	0x3d4743e3	0.048648726
115	0x3d3b0b04	0.045664802
116	0x3dc77637	0.097393446
117	0xbc7963db	-0.015221561
118	0x3de0b61a	0.10972233
119	0xbd25a89d	-0.040444005
120	0x3e3b66b1	0.18300892
121	0x3cfbdd37	0.030745132
122	0x3cc952e2	0.024575654
123	0x3d1a0e80	0.037611485
124	0x3d74e8a0	0.05979216
125	0xbddc6933	-0.10762253
126	0xbdf8afd7	-0.12142914
127	0x3debefd9	0.11520357
128	0x3d8d20dc	0.06891033
129	0x3c325440	0.010884345
130	0x3d48b847	0.049003866
131	0xbeb63277	-0.35585377
132	0x3d98ea3d	0.074665524
133	0xbca0f0ad	-0.019646013
134	0xbdc74825	-0.09730557
135	0x3d00976e	0.031394415
136	0xbd5d8bfd	-0.05408858
137	0xbdf19cdc	-0.11797497
138	0xbd140992	-0.03614194
139	0x3cbebcaf	0.02328333
140	0xbe0d1a5f	-0.13779591
141	0xba799838	-0.00095212786
142	0xbd90430a	-0.07044037
143	0xbdb0a4c3	-0.08625176
144	0xbddd06f0	-0.10792339
145	0x3e328452	0.17433289
146	0xbde0e071	-0.10980309
147	0x3de03c25	0.10948972
148	0x3d32d359	0.043658588
149	0x3e43a855	0.19107182
150	0x3d1c6471	0.038181726
151	0x3c94fbd4	0.018186487
152	0xbd00d892	-0.031456538
153	0xbcb4ee35	-0.022086242
154	0x3e2462bb	0.16053288
155	0xbc8e852f	-0.017397491
156	0x3cdb5e19	0.026778268
157	0xbbe34d3a	-0.0069366964
158	0x3d180be0	0.0371207
159	0x3e5f7c53	0.2182477
160	0x3e36ed6a	0.17864004
161	0xbd10e20f	-0.035371836
162	0xbe1ff409	-0.15620436
163	0x3e0be650	0.13662076
164	0x3d07a78a	0.033118762
165	0x3d1f8028	0.03894058
166	0xbda7461b	-0.081676684
167	0x3e13ff63	0.14452891
168	0x3c490567	0.012269354
169	0xbca126bd	-0.019671792
170	0x3d92bb81	0.0716467
171	0xbe2f8922	-0.17142156
172	0xbca44c20	-0.02005583
173	0xbe0278af	-0.1274135
174	0x3dd7f4ba	0.10544725
175	0x3e12d002	0.14337161
176	0x3d52e758	0.051490158
177	0xbcce09e6	-0.025151204
178	0xbc8263a4	-0.015916653
179	0xbde2c58f	-0.110728376
180	0xbddd2cc3	-0.10799553
181	0x3daf0260	0.08545375
182	0x3dbff0d1	0.09372104
183	0xbe196d3e	-0.14983079
184	0x3caf6c5b	0.021413973
185	0x3e84e101	0.25952914
186	0x3c9430f3	0.018089747
187	0x3c9f82de	0.019471582
188	0x3d92785d	0.07151864
189	0xbd83ceef	-0.06435954
190	0x3db313b3	0.08743992
191	0x3cb9a890	0.022663385
192	0xbd3203a7	-0.043460514
193	0x3d7b4657	0.06134638
194	0x3ce9a90b	0.028522989
195	0x3dd910f4	0.10598937
196	0xba091b26	-0.00052301807
197	0xbe12bb53	-0.14329271
198	0xbd06afa6	-0.032882355
199	0x3e0bbf1f	0.13647126
200	0xbe08ec19	-0.13371314
201	0x3e55d748	0.20882905
202	0x3da360eb	0.0797747
203	0xbb27cb79	-0.0025603457
204	0xbd3f8b48	-0.04676369
205	0xbd099338	-0.033587664
206	0x3dc91bc5	0.0981975
207	0xbdae8c7c	-0.08522889
208	0xbd536380	-0.051608562
209	0x3b382960	0.0028100833
210	0x3cda0b17	0.026616616
211	0xbd8eb750	-0.06968558
212	0x3e248bd1	0.1606896
213	0xbdf52fba	-0.11971994
214	0x3e2df98d	0.16989727
215	0xbd8ef687	-0.06980615
216	0xbd8ab6d6	-0.067731544
217	0xbda00f6a	-0.0781544
218	0x3e0cb4c5	0.13740833
219	0x3be7cfdb	0.007074339
220	0xbc88877d	-0.016666168
221	0x3dd025d2	0.10163464
222	0x3c8bc9ad	0.01706394
223	0xbc03ce31	-0.008044765
224	0x3d035901	0.032067303
225	0x3d99d2a5	0.075108804
226	0xbe655904	-0.22397238
227	0x3d52b7f3	0.05144496
228	0xbdc8e2d5	-0.0980889
229	0xbd15db62	-0.036586173
230	0x3cd80bc8	0.026372805
231	0x3e095f68	0.13415301
232	0x3e207cb2	0.15672567
233	0x3d86329c	0.06552622
234	0xbe0da41b	-0.13832133
235	0x3de891e9	0.11355955
236	0x3db6b308	0.08920866
237	0x3e29ae0e	0.16570303
238	0x3bed6c2a	0.00724556
239	0xbd2a6f88	-0.04161027
240	0xbdbc5164	-0.091952115
241	0xbe0557a4	-0.13021713
242	0x3e1704d4	0.14747936
243	0xbdf1b2e9	-0.118017025
244	0x3d08d5d5	0.03340705
245	0xbe11a10a	-0.14221588
246	0xbc952b62	-0.018209163
247	0xbc9ec99c	-0.019383244
248	0x3e144481	0.14479257
249	0x3dbae44c	0.091255754
250	0xbd659ecb	-0.05605964
251	0x3da672a8	0.08127338
252	0x3da3cf6a	0.079985455
253	0x3d9fff7d	0.078124024
254	0x3c56bf27	0.013107098
255	0xbd580746	-0.05274131

fc4.bias f4 [128]
0	0x39fb41a6	0.00047923363
1	0xbb6154b8	-0.0034382772
2	0x3acecca8	0.0015777545
3	0x3b81ad95	0.00395746
4	0xbad1e1cc	-0.0016012727
5	0x3b365f75	0.0027827893
6	0xb9c6a500	-0.00037888438
7	0x3a8bf1c0	0.0010676906
8	0xba291485	-0.0006449896
9	0x3b72ca4c	0.0037046848
10	0x3b2c9eed	0.0026339844
11	0x3bab0f47	0.005220327
12	0x3a99c663	0.0011732097
13	0x39d33ef7	0.0004029197
14	0x3b6af6ae	0.00358526
15	0x3b11970d	0.0022215277
16	0xbbb4b8f1	-0.005515211
17	0x38e7ff46	0.00011062487
18	0xba8083ce	-0.0009804906
19	0xb7e5f484	-2.7412789e-05
20	0xbba65edd	-0.0050772266
21	0xbb214132	-0.002460551
22	0xba12b3ae	-0.00055962324
23	0x39163818	0.00014326011
24	0xbb8d6201	-0.0043146615
25	0x3a3256d2	0.00068030984
26	0x3a96c384	0.001150236
27	0xba3821fa	-0.0007024106
28	0xbb888508	-0.004166249
29	0xbb76af83	-0.0037641234
30	0xbad1f6b3	-0.0016018957
31	0x3baebf24	0.0053328443
32	0xba59b812	-0.00083053217
33	0x3b929938	0.0044738315
34	0x3b44668a	0.0029968345
35	0xba466f5e	-0.00075696956
36	0x38c03aa0	9.166193e-05
37	0xbaf2af63	-0.0018515404
38	0x3b415525	0.0029500213
39	0xbbd05288	-0.0063574947
40	0xbac18183	-0.0014763329
41	0x3b8025e5	0.0039107674
42	0x3c11f550	0.008908585
43	0xbaa21a6d	-0.0012367495
44	0xbb18a880	-0.0023293793
45	0xbb123f22	-0.0022315462
46	0x3a490cf8	0.0007669474
47	0xbab33276	-0.0013671655
48	0x39f6fcef	0.00047109227
49	0xbb0d4d72	-0.0021561054
50	0x388b7fda	6.651851e-05
51	0x3a44eb14	0.0007511836
52	0x3afc3feb	0.0019245123
53	0xba9da39a	-0.0012026906
54	0x39b2d281	0.00034107643
55	0x390bea6a	0.00013343399
56	0x381b5bb6	3.7040292e-05
57	0xba94e2a4	-0.0011359048
58	0x3a603826	0.00085532886
59	0xbaf0c7a2	-0.0018370042
60	0x3abee58b	0.0014564259
61	0xbb054669	-0.0020336157
62	0xbb007296	-0.0019599549
63	0xbabaf446	-0.0014263473
64	0xbb7a2a02	-0.0038172011
65	0xb9366546	-0.000173946
66	0x38b15a9c	8.456895e-05
67	0x3ba8d166	0.0051519154
68	0xba8c11ee	-0.0010686496
69	0xbad712bf	-0.0016408785
70	0xbb0f7343	-0.002188877
71	0x3ac8a0b0	0.0015306678
72	0xbb8f7c5a	-0.0043788375
73	0xbb4f72f0	-0.0031654201
74	0xbbafee38	-0.005368974
75	0x3b013204	0.001971365
76	0xba778678	-0.00094423397
77	0xbb1095f6	-0.002206204
78	0x3b6fd0fc	0.003659307
79	0xba974e02	-0.0011543634
80	0x3a91360e	0.0011078732
81	0x3abcc95a	0.0014403269
82	0x3aa70fe8	0.0012745829
83	0xb9b02bb0	-0.00033601886
84	0xb9ad9dfd	-0.00033114842
85	0x3b2dbac7	0.0026509033
86	0xba8e6767	-0.0010864557
87	0xb894f6a4	-7.10313e-05
88	0xba63f342	-0.0008695611
89	0xba5d05a1	-0.000843132
90	0x3a547570	0.0008104658
91	0xbb24a086	-0.0025120093
92	0xbaf8dce3	-0.0018986728
93	0x39cc107b	0.0003892219
94	0x3abae0e0	0.0014257692
95	0x3b53052f	0.0032199135
96	0x3ac3664a	0.0014907804
97	0xbb1528b1	-0.002275985
98	0x3ac5ed4c	0.0015100627
99	0xbac2bd08	-0.0014857361
100	0x3ad73cc8	0.0016421312
101	0xba225c37	-0.00061935507
102	0xba9c3e3e	-0.0011920405
103	0xbb19aa25	-0.0023447361
104	0xb8b12568	-8.446985e-05
105	0xbaa341c2	-0.001245551
106	0x3aa1a092	0.0012331179
107	0xbb41b4fe	-0.0029557343
108	0x3a7cd67c	0.0009644998
109	0xbb120d19	-0.002228564
110	0x3b2d23d8	0.002641907
111	0xbb1935aa	-0.0023377934
112	0xbac66d01	-0.0015138687
113	0xb8faf857	-0.00011967186
114	0x38cd00c2	9.775303e-05
115	0xbb144213	-0.002262239
116	0x39c92104	0.00038362306
117	0x3b1d001a	0.002395636
118	0x3bb49abb	0.0055116094
119	0x39da757e	0.0004166774
120	0xbb4ea3e2	-0.0031530787
121	0x39206438	0.00015296123
122	0xbb431abc	-0.0029770574
123	0xbba69d69	-0.0050846827
124	0xb9a5e826	-0.00031644217
125	0xba757874	-0.0009363957
126	0xbb57d28d	-0.0032931895
127	0xbaa9f600	-0.001296699

bn4.weight f4 [128]
0	0x3f84a38a	1.0362408
1	0x3f829aea	1.0203526
2	0x3f8b9742	1.0905535
3	0x3f7bc09e	0.98340786
4	0x3f79182e	0.9730252
5	0x3f88736e	1.0660226
6	0x3f8c1185	1.0942847
7	0x3f8169b4	1.0110383
8	0x3f8ce9e7	1.1008881
9	0x3f83af2b	1.0287832
10	0x3f75d6c6	0.96030843
11	0x3f7da7b6	0.9908403
12	0x3f8181a4	1.0117688
13	0x3f7a11e9	0.9768358
14	0x3f6b2e71	0.9186774
15	0x3f72dcaa	0.94867957
16	0x3f721568	0.94563913
17	0x3f78ea75	0.97232753
18	0x3f886ee4	1.0658841
19	0x3f63e9da	0.89028704
20	0x3f764536	0.9619936
21	0x3f8267c5	1.0187918
22	0x3f740f50	0.95335865
23	0x3f80fcd8	1.0077162
24	0x3f70d903	0.94081134
25	0x3f8014e4	1.0006375
26	0x3f74d4de	0.9563731
27	0x3f74b4d5	0.9558843
28	0x3f77be2f	0.9677457
29	0x3f87a7c1	1.059807
30	0x3f7f579d	0.9974306
31	0x3f7d39af	0.98916143
32	0x3f704107	0.93849224
33	0x3f827f54	1.0195107
34	0x3f88d3be	1.0689619
35	0x3f81309d	1.0092961
36	0x3f87ef4e	1.0619905
37	0x3f7b551a	0.9817673
38	0x3f81cf40	1.0141373
39	0x3f833ba4	1.0252576
40	0x3f8a2b13	1.0794395
41	0x3f7f7458	0.997869
42	0x3f849a66	1.0359619
43	0x3f758286	0.9590229
44	0x3f78ce2e	0.97189605
45	0x3f82bb13	1.021334
46	0x3f7763c2	0.96636593
47	0x3f8ba794	1.0910516
48	0x3f8041f0	1.0020123
49	0x3f66037c	0.89849067
50	0x3f83ef54	1.0307412
51	0x3f77c12a	0.9677912
52	0x3f777bcf	0.9667329
53	0x3f7f99dc	0.99844146
54	0x3f7756e7	0.9661698
55	0x3f6a617a	0.9155499
56	0x3f80abaa	1.0052388
57	0x3f8080ff	1.0039366
58	0x3f6cb253	0.924596
59	0x3f7af091	0.98023325
60	0x3f71c86f	0.9444646
61	0x3f90bb2d	1.1307122
62	0x3f8168ea	1.0110142
63	0x3f7456ab	0.95444745
64	0x3f73f5a7	0.9529671
65	0x3f880ddd	1.0629231
66	0x3f778f2c	0.9670284
67	0x3f8a264d	1.0792938
68	0x3f814596	1.0099361
69	0x3f80891d	1.0041844
70	0x3f8262ef	1.0186442
71	0x3f6c0120	0.92189217
72	0x3f74f036	0.9567903
73	0x3f6dfdcc	0.9296539
74	0x3f7f203d	0.99658567
75	0x3f82dae0	1.0223045
76	0x3f713f32	0.94237053
77	0x3f845958	1.0339766
78	0x3f578b96	0.84197366
79	0x3f7e3a47	0.99307674
80	0x3f7958f3	0.9740135
81	0x3f86a6b8	1.0519629
82	0x3f869ee6	1.0517242
83	0x3f81b728	1.013402
84	0x3f76e3a6	0.96441114
85	0x3f834036	1.0253971
86	0x3f6f3311	0.93437296
87	0x3f718e51	0.9435778
88	0x3f804eab	1.0024008
89	0x3f763885	0.9617999
90	0x3f717f7f	0.9433517
91	0x3f666262	0.8999387
92	0x3f79512a	0.9738947
93	0x3f76f094	0.96460843
94	0x3f7bf648	0.9842267
95	0x3f837002	1.0268557
96	0x3f75639f	0.95855135
97	0x3f83189d	1.0241886
98	0x3f64a9e1	0.89321715
99	0x3f89aeff	1.075653
100	0x3f6f0ffd	0.9338377
101	0x3f544d76	0.82930696
102	0x3f825c34	1.0184388
103	0x3f7b6f2f	0.9821653
104	0x3f7e7100	0.99391174
105	0x3f82851c	1.0196872
106	0x3f825063	1.0180782
107	0x3f878713	1.0588096
108	0x3f6bc10e	0.92091453
109	0x3f903ed9	1.126918
110	0x3f7232c1	0.94608694
111	0x3f9e1c01	1.2352296
112	0x3f76e5a7	0.9644417
113	0x3f784789	0.96984154
114	0x3f81dd4c	1.014566
115	0x3f81530f	1.0103472
116	0x3f726e15	0.9469922
117	0x3f7106fb	0.94151276
118	0x3f8cbf5a	1.0995896
119	0x3f73bcf9	0.95210224
120	0x3f7262b4	0.9468186
121	0x3f87ee8d	1.0619675
122	0x3f6a4d31	0.91524035
123	0x3f8b973e	1.090553
124	0x3f741f1c	0.9535997
125	0x3f81e4e8	1.0147982
126	0x3f8fdb75	1.1238848
127	0x3f88cb20	1.0686989

bn4.bias f4 [128]
0	0xbe7d8284	-0.24756819
1	0xbe368755	-0.17825063
2	0xbdd31c67	-0.10308152
3	0xbda8fb9f	-0.08251118
4	0xbe8120bf	-0.25220296
5	0xbe339893	-0.17538671
6	0xbd9e15c9	-0.07718999
7	0xbdba8a14	-0.091083676
8	0xbe2c7501	-0.16841508
9	0xbe48810b	-0.19580476
10	0xbdb0533c	-0.08609626
11	0xbd78698c	-0.060647532
12	0xbd4eb42c	-0.050464794
13	0x3d07c42b	0.033146065
14	0xbd21e8f6	-0.03952881
15	0xbdeb4539	-0.114878125
16	0xbe28a752	-0.16470078
17	0xbcba9405	-0.02277566
18	0xbdb68b67	-0.08913308
19	0xbe90e9de	-0.28303427
20	0xbe50b5bf	-0.2038183
21	0xbecd2a08	-0.4007113
22	0xbe8e4415	-0.27786317
23	0xbdc356db	-0.09538051
24	0xbda47a11	-0.08031095
25	0xbe59632a	-0.21229234
26	0xbe21e00b	-0.15808122
27	0xbe520af7	-0.20511995
28	0xbdc6c1e6	-0.09704952
29	0xbd42e850	-0.04758483
30	0xbd9afe96	-0.0756809
31	0xbd76a9e0	-0.0602206
32	0xbddb6d82	-0.10714246
33	0xbd8a8ea9	-0.067654915
34	0xbe3ceb44	-0.18449122
35	0xbcb6a9e6	-0.02229781
36	0xbe4b9660	-0.19881582
37	0xbd38c8aa	-0.045113243
38	0xbdc3d091	-0.09561265
39	0xbdad5c62	-0.08464886
40	0xbe69f733	-0.22848205
41	0xbbb7d458	-0.00561003
42	0xbe14b69d	-0.14522786
43	0xbe119626	-0.14217433
44	0xbd5e3a2c	-0.054254696
45	0xbc417022	-0.01180652
46	0xbc4dbaad	-0.012556714
47	0xbd2dd8c3	-0.04244305
48	0xbde6498b	-0.11244496
49	0xbde5f278	-0.11227888
50	0x3d51e8bc	0.051247343
51	0xbe130f8a	-0.14361396
52	0xbd0dd3aa	-0.034625687
53	0xbda9f9f7	-0.0829963
54	0xbd584f2b	-0.052809875
55	0xbd79070a	-0.06079773
56	0xbdcc7d90	-0.09984887
57	0xbd9d521a	-0.07681675
58	0xbd97a674	-0.07404795
59	0xbdec5cde	-0.115411505
60	0xbe167075	-0.14691336
61	0xbe8353b3	-0.25649795
62	0xbda5e718	-0.08100718
63	0xbe4c677a	-0.19961348
64	0x3b979c08	0.0046267547
65	0xbe440248	-0.19141495
66	0xbe451e67	-0.19249879
67	0xbe74f65d	-0.23922105
68	0xbd5e4ddd	-0.054273475
69	0xbde3c570	-0.111216426
70	0xbe691735	-0.22762759
71	0xbe78e76a	-0.24307027
72	0xbe5015b0	-0.20320773
73	0x3c747ad3	0.014921862
74	0x3c04b536	0.008099845
75	0xbddff3ff	-0.109352104
76	0xbe3ca7a6	-0.18423328
77	0xbe66afa0	-0.22527933
78	0xbecc0868	-0.39850163
79	0xbdb2eefd	-0.0873699
80	0xbe29f07e	-0.16595647
81	0x3987554a	0.00025812752
82	0xbe302f9c	-0.17205662
83	0xbd714385	-0.058902282
84	0xbe0139c2	-0.12619689
85	0xbdd4548f	-0.10367691
86	0xbd5fb45b	-0.05461536
87	0xbe30293c	-0.1720323
88	0xbdfbdf0a	-0.12298401
89	0xbdafbe9f	-0.0858128
90	0xbe33123d	-0.17487426
91	0xbe172bd4	-0.14762813
92	0xbdab4a73	-0.083638094
93	0xbe5c4577	-0.21510874
94	0xbe0e5d1f	-0.1390271
95	0xbe349b74	-0.17637426
96	0xbe347ff7	-0.1762694
97	0xbe05caa3	-0.13065581
98	0xbdfeb3b2	-0.12436618
99	0xbe2d1c94	-0.16905433
100	0xbe417587	-0.1889249
101	0xbdac5404	-0.08414462
102	0xbdc8189f	-0.09770321
103	0xbdea18c1	-0.11430503
104	0xbdd04126	-0.10168676
105	0xbd98fc53	-0.07470002
106	0xbda407de	-0.08009313
107	0xbe33bd54	-0.17552692
108	0xbdd32bd4	-0.10311094
109	0xbc940929	-0.018070774
110	0xbded326e	-0.11581884
111	0xbe9ed159	-0.31019095
112	0xbe1d8ecd	-0.15386505
113	0xbd9bdb93	-0.0761024
114	0xbe2798eb	-0.16366927
115	0xbda344a0	-0.079720736
116	0xbdea0128	-0.11426002
117	0xbdd7f2d2	-0.10544361
118	0xbdfa418f	-0.122195356
119	0xbe5480b5	-0.20752223
120	0xbdf428f6	-0.11921875
121	0xbc78da8f	-0.015188827
122	0xbea51241	-0.3224049
123	0xbd9ac3bd	-0.07556865
124	0xbe301630	-0.17195964
125	0xbe99e978	-0.30060935
126	0xbde617d4	-0.112350136
127	0xbd8dcf90	-0.06924355
