Inference_pytorch/predict_model/regression_model_power.pth (torch_old, 124636 bytes, 31 tensors)

fc1.weight f4 [128, 7]
0.15748064 0.3929903 0.1751004 -0.050517894 -0.34680426 -0.15302406 0.28024063 0.28120103
-0.10337354 -0.25093645 0.21342543 -0.31374565 -0.16512743 -0.3726483 -0.31230024 -0.06880169
-0.35265547 0.03410572 -0.11121239 0.084763944 0.28898236 0.042348176 -0.17624512 -0.41584104
0.16597295 -0.044005163 -0.0016266765 -0.13360073 -0.47693652 -0.1525051 -0.041189082 0.10691073
0.13153309 0.026754493 0.0019305396 -0.08844572 -0.22455105 0.11376303 0.16171828 0.1422473
0.035943344 -0.57472044 0.40771016 0.092899196 -0.06366863 -0.057962205 0.069457814 -0.30887476
-0.08799019 -0.12561032 -0.3728203 0.14461084 -0.32108688 -0.016497603 -0.31472287 -0.31139705
-0.13742931 -0.27406207 0.29562804 -0.08032986 0.011923991 -0.3994722 0.077286266 0.35219717
0.34270743 0.16803296 0.22445801 0.061888512 -0.0457803 0.19039027 0.03327669 -0.13555215
-0.43334317 -0.068745695 0.28503028 -0.14820878 0.13456786 0.1317675 0.20778446 0.0675429
-0.004843172 0.07016606 -0.27451104 0.10181056 0.07571257 -0.074297294 -0.28172764 0.016020352
-0.2403433 0.19400571 0.28161582 -0.36910355 0.26511398 0.09933173 0.19437146 0.054599382
-0.21378961 0.34589034 -0.17198376 0.15368834 0.14637263 0.21919133 0.30022684 0.15749764
0.096305534 -0.024853813 0.36545578 -0.23480299 -0.16881461 0.19334263 -0.0629894 -0.26962793
0.059349213 0.086022645 0.31272048 0.027903669 0.034383506 -0.33026588 0.3272604 -0.35689345
0.06415108 -0.010497529 0.2540968 0.13992766 -0.13085662 -0.117238656 0.46260726 0.05729226
-0.0735001 0.10033061 0.009948123 -0.017884636 -0.43353263 0.25155798 0.27125284 -0.34933132
0.06655037 0.21221283 0.08473975 0.43609145 0.22050443 -0.16636118 0.29980388 0.12385505
-0.071379684 0.26427555 -0.1451382 -0.019393489 -0.31991544 0.38150558 -0.12917946 -0.062329464
-0.29520205 -0.09197933 -0.08565859 -0.11856592 -0.2657924 -0.103743605 0.35611597 -0.034732327
0.028135944 -0.41477257 0.077907756 -0.07534127 -0.23431344 0.120220006 0.12854668 0.13711134
0.2105045 0.053808246 0.24024601 0.10761314 -0.21288836 0.25844842 0.20199493 0.10481211
0.044753414 -0.07664752 -0.15241046 -0.09281816 0.28153783 -0.046438664 0.28965065 0.19239666
-0.32838592 -0.30008778 -0.1748358 0.2746713 0.3723503 0.11899311 0.14720953 -0.23639625
-0.09747012 0.009861747 -0.39643225 0.014848798 -0.4039 -0.082025304 0.14910625 -0.050204746
0.2666411 -0.102638856 0.34507316 0.08362064 -0.105121605 0.36834732 0.22411081 -0.27035642
0.21837808 0.3559959 -0.1389563 -0.0034520046 0.2510104 0.29102474 0.17301498 0.107354484
0.09937778 -0.32280275 -0.13862531 -0.100265495 -0.053612404 -0.14209434 0.14461003 -0.41672546
-0.14324267 -0.1630932 -0.070441 -0.1921977 0.12116009 0.04450932 -0.45670745 0.002859605
0.18597665 -0.22960928 0.025187206 0.13491727 -0.15684612 0.30987066 0.06895665 0.18549132
-0.3948487 -0.058470502 -0.05928222 -0.1040482 0.065745935 -0.26636967 0.08800052 -0.031155037
0.06342444 -0.15787914 -0.23280305 0.23400497 -0.11026679 -0.39590895 0.33774382 0.07837939
00000000: 9b42 213e 0636 c93e 854d 333e daeb 4ebd
00000010: 5490 b1be 57b2 1cbe b37b 8f3e 95f9 8f3e
00000020: 82b5 d3bd be7a 80be 328c 5a3e 45a3 a0be
00000030: 2a17 29be c2cb bebe d1e5 9fbe e7e7 8cbd
00000040: 428f b4be 71b2 0b3d 52c3 e3bd b898 ad3d
00000050: 7ff5 933e 4875 2d3d 9a79 34be 1ee9 d4be
00000060: d0f4 293e c23e 34bd 3536 d5ba a1ce 08be
00000070: 0631 f4be 4c2a 1cbe e2b5 28bd 03f4 da3d
00000080: 9cb0 063e 3d2c db3c 290a fd3a 0823 b5bd
00000090: b6f0 65be 97fc e83d 7a99 253e 47a9 113e
000000a0: 5439 133d e120 13bf 63bf d03e ef41 be3d
000000b0: b364 82bd c769 6dbd e63f 8e3d d524 9ebe
000000c0: 3334 b4bd fe9f 00be 4de2 bebe dd14 143e
000000d0: 8065 a4be fb25 87bc 5b23 a1be 6f6f 9fbe
000000e0: 45ba 0cbe dd51 8cbe 8f5c 973e fb83 a4bd
000000f0: d85c 433c 9f87 ccbe 4348 9e3d 3053 b43e
00000100: 5977 af3e d510 2c3e 52d8 653e cf7e 7d3d
00000110: 2084 3bbd abf5 423e 234d 083d 2fce 0abe
00000120: 28df ddbe 8bca 8cbd 7def 913e 0bc4 17be
00000130: 28cc 093e 0fee 063e 73c5 543e ef53 8a3d
00000140: 79b3 9ebb 39b3 8f3d b68c 8cbe 0e82 d03d
00000150: 310f 9b3d 2e29 98bd 9b3e 90be 1d3d 833c
00000160: 8e1c 76be 6fa9 463e f32f 903e 24fb bcbe
00000170: 05bd 873e 6f6e cb3d 5009 473e 9aa3 5f3d
00000180: aaeb 5abe 8a18 b13e 831c 30be 7a60 1d3e
00000190: b5e2 153e b173 603e 55b7 993e 1047 213e
000001a0: d63b c53d 399a cbbc 051d bb3e 3270 70be
000001b0: bddd 2cbe 9cfb 453e 9600 81bd ac0c 8abe
000001c0: 2918 733d a42c b03d e61c a03e 3c96 e43c
000001d0: b8d5 0c3d 9c18 a9be ad8e a73e bdba b6be
000001e0: a461 833d d4fd 2bbc fa18 823e 3249 0f3e
000001f0: 47ff 05be d21a f0bd dcda ec3e 4aab 6a3d
00000200: 3887 96bd 237a cd3d 74fd 223c cd82 92bc
00000210: fdf7 ddbe 35cc 803e a7e1 8a3e 8edb b2be
00000220: 8f4b 883d 524e 593e 098c ad3d 6147 df3e
00000230: eacb 613e 965a 2abe e57f 993e b7a7 fd3d
00000240: 832f 92bd 204f 873e 1c9f 14be 18df 9ebc
00000250: f5cb a3be b354 c33e 9f47 04be 2e4d 7fbd
00000260: b924 97be a95f bcbd c56d afbd b0d2 f2bd
00000270: f115 88be 8777 d4bd d554 b63e 7c43 0ebd
00000280: 5a7d e63c 125d d4be 1a8e 9f3d 864c 9abd
00000290: ddef 6fbe e835 f63d bea1 033e ea66 0c3e
000002a0: 7e8e 573e 0966 5c3d 0d03 763e 4764 dc3d
000002b0: 68ff 59be 5a53 843e c2d7 4e3e bba7 d63d
000002c0: 5b4f 373d 60f9 9cbd 7d11 1cbe 7317 bebd
000002d0: ba25 903e 7836 3ebd 174d 943e a103 453e
000002e0: 3322 a8be 1ba5 99be 2808 33be b7a1 8c3e
000002f0: b3a4 be3e a9b2 f33d 18be 163e dc11 72be
00000300: 6a9e c7bd 2a93 213c 2bf9 cabe 5f48 733c
00000310: fbcb cebe e2fc a7bd 4faf 183e 7ea3 4dbd
00000320: 2f85 883e 5234 d2bd 6ead b03e 4c41 ab3d
00000330: ff49 d7bd 0598 bc3e 4e7d 653e 286c 8abe
00000340: 819e 5f3e 1845 b63e 8f4a 0ebe 073b 62bb
00000350: 6f84 803e 3201 953e d72a 313e abdc db3d
00000360: 9486 cb3d 6746 a5be cbf3 0dbe ff57 cdbd
00000370: ae98 5bbd 2e81 11be a714 143e 0a5d d5be
00000380: 35ae 12be e701 27be 5f43 90bd 79cf 44be
00000390: c822 f83d 684f 363d 8fd5 e9be 3668 3b3b
000003a0: aa70 3e3e b21e 6bbe 6655 ce3c c127 0a3e
000003b0: 459c 20be 5ea7 9e3e 2539 8d3d 70f1 3d3e
000003c0: 9c29 cabe c47e 6fbd ead1 72bd 3917 d5bd
000003d0: cea5 863d 9b61 88be 9e39 b43d d938 ffbc
000003e0: ace4 813d 12ab 21be ec63 6ebe 009f 6f3e
000003f0: 8ed3 e1bd 94b4 cabe c2ec ac3e 6085 a03d

fc1.bias f4 [128]
2.9111827e-06 -2.2254073e-06 -8.198603e-06 2.3820548e-05 3.3497834e-06 4.809407e-06 1.9892182e-06 -7.539827e-08
-1.091949e-05 2.2310373e-06 -3.3762594e-06 7.0484734e-06 -7.606356e-06 -2.0743946e-06 -1.0179659e-05 -6.9516994e-07
4.4075182e-07 -4.297017e-06 -1.6992197e-05 -5.6703725e-06 6.447498e-06 -4.122232e-06 -4.349478e-06 -2.210632e-06
4.4496e-07 7.59406e-06 -2.959495e-06 -5.6781855e-06 -7.143319e-06 5.065105e-07 9.557129e-06 3.445519e-06
6.8761115e-06 6.8560003e-06 5.2462747e-06 8.210014e-06 -1.05404915e-05 1.03960865e-07 2.077871e-06 9.730691e-06
5.790156e-06 4.925747e-06 -4.5539077e-06 -2.6283167e-05 -2.9986334e-06 -1.6782278e-06 -2.1575619e-05 8.699002e-06
-9.245544e-06 -5.617101e-06 3.164747e-05 -8.467923e-06 -2.683364e-05 -1.8446611e-06 -5.0878334e-06 -7.592328e-06
-1.2872829e-06 2.5003012e-06 -1.285482e-05 2.8630944e-07 -9.297057e-06 -3.7318782e-07 -3.1044766e-07 1.0073801e-05
1.0081111e-05 -1.16123165e-05 -4.337343e-06 -7.1525037e-06 -4.9076016e-06 -1.2225858e-05 4.714344e-06 4.519947e-06
-5.1677335e-07 -3.876646e-06 3.988309e-06 -4.543162e-06 1.0467669e-05 -9.369193e-06 -8.205819e-06 -1.1007423e-05
-3.4095713e-06 5.48373e-06 5.027598e-06 -5.1552497e-06 -0.00014255024 3.2121525e-06 1.9474878e-06 1.1398947e-05
-1.4664918e-06 2.9441118e-05 -5.1956334e-07 -4.336762e-06 -2.6101732e-05 -3.4711486e-06 -3.0356466e-06 2.6618202e-06
4.4790263e-06 1.1583172e-05 -2.0251352e-06 1.8230052e-07 3.314245e-06 -1.2644637e-06 4.8489767e-07 1.7474355e-06
6.8958684e-07 8.548258e-06 -5.348139e-07 -8.0164887e-07 2.0702632e-06 6.5519885e-06 -4.3281066e-06 2.467709e-05
1.9038952e-06 -1.0247653e-05 1.187199e-06 -4.9114233e-06 1.0473906e-05 -4.6589236e-07 -8.380763e-07 -5.7725233e-06
1.5961565e-06 1.8630837e-05 -4.9918654e-06 2.726538e-06 -1.6222013e-07 -3.32437e-05 9.063363e-07 2.2653005e-05
00000000: bd5d 4336 3558 15b6 bb8c 09b7 3dd2 c737
00000010: d7cc 6036 7e60 a136 827e 0536 a3ea a1b3
00000020: da32 37b7 eeb8 1536 b293 62b6 ed81 ec36
00000030: 1a3a ffb6 d435 0bb6 4dc9 2ab7 b79b 3ab5
00000040: 78a0 ec34 182f 90b6 778a 8eb7 2144 beb6
00000050: 9657 d836 b451 8ab6 bbf1 91b6 5e5a 14b6
00000060: d6e2 ee34 7bd0 fe36 bd9b 46b6 3e87 beb6
00000070: a5b0 efb6 23f7 0735 8e57 2037 9139 6736
00000080: 59b9 e636 980c e636 2809 b036 bebd 0937
00000090: 11d7 30b7 1741 df33 8d71 0b36 0041 2337
000000a0: 1049 c236 d847 a536 c5cd 98b6 ac7a dcb7
000000b0: 213c 49b6 783f e1b5 4afd b4b7 eef1 1137
000000c0: 4f1d 1bb7 887a bcb6 36bd 0438 7411 0eb7
000000d0: ce18 e1b7 1396 f7b5 28b8 aab6 9ac1 feb6
000000e0: b4c6 acb5 d9ca 2736 08ab 57b7 12b6 9934
000000f0: 8efa 1bb7 8b5a c8b4 9aab a6b4 a502 2937
00000100: 0b22 2937 85d2 42b7 7e89 91b6 8aff efb6
00000110: faab a4b6 a91d 4db7 e82f 9e36 0daa 9736
00000120: 65b8 0ab5 2314 82b6 50d3 8536 7771 98b6
00000130: 4c9e 2f37 6130 1db7 b9ab 09b7 86ac 38b7
00000140: fdcf 64b6 e200 b836 bdb2 a836 42fb acb6
00000150: 8a79 15b9 5c90 5736 96b1 0236 1b3e 3f37
00000160: 46d4 c4b5 52f8 f637 1f78 0bb5 8084 91b6
00000170: 0bf5 dab7 e1f1 68b6 03b8 4bb6 b9a1 3236
00000180: 8b4a 9636 5855 4237 8fe7 07b6 63be 4334
00000190: 4c6a 5e36 a4b6 a9b5 ea29 0235 6d89 ea35
000001a0: 0c1c 3935 7d6a 0f37 2290 0fb5 e430 57b5
000001b0: daee 0a36 27d9 db36 273a 91b6 a601 cf37
000001c0: 5789 ff35 56ed 2bb7 d957 9f35 cecc a4b6
000001d0: 15b9 2f37 c21f fab4 2af8 60b5 99b1 c1b6
000001e0: 853b d635 6b49 9c37 cc7f a7b6 91f9 3636
000001f0: bb2e 2eb4 276f 0bb8 f54a 7335 f506 be37

bn1.weight f4 [128]
0.8889239 0.856693 0.99131787 1.0135772 0.99129033 1.1021436 1.1139432 0.92118716
0.992295 0.70873266 0.97549605 0.8618075 0.8529092 0.80727065 0.9263652 0.82508487
0.93067074 0.96339697 1.2956553 0.934047 0.9464851 0.98219633 0.93619287 0.991771
0.89881825 0.96066743 0.92195445 0.9061424 0.9638075 0.93188775 0.9352081 0.9400803
0.9345491 0.9835593 0.99954456 0.9816192 1.0515274 0.91940993 0.89500654 0.8652153
0.92698807 1.0457134 0.7881546 0.9496801 0.89773536 0.9570609 1.0186225 0.98922557
1.1459202 1.1607966 1.0718138 1.0140252 1.161365 0.9350366 0.9288841 0.9112379
0.85081565 0.98064566 1.1304146 0.8692621 1.0191406 0.86202604 0.8471744 0.97133493
1.0051963 0.99529177 0.8658633 1.0078388 0.940921 1.0669905 0.9500938 0.80361027
1.1223476 0.8544369 0.8562491 0.9438441 0.9846253 0.83838874 1.1042963 0.9569662
0.9067382 0.9524658 0.98870605 1.067574 1.3264751 0.86647344 0.917487 0.91522664
0.97956717 0.98979163 0.9373745 0.8753028 0.99742246 0.9709923 0.8626886 0.86384505
0.9527466 0.9524699 0.8839515 0.87658054 0.8314034 0.7920112 0.9764311 0.8437379
0.9672613 0.91434765 0.84113944 1.0204209 0.9058118 1.3268723 0.90194064 1.0313272
0.9107229 1.0187204 0.85638535 0.907339 1.0486331 0.8364297 0.9423109 0.89483196
0.9016057 0.9535714 1.0045574 0.9018602 0.9067119 1.0140827 0.7969695 0.9852534
00000000: 8490 633f 3c50 5b3f 02c7 7d3f e6bc 813f
00000010: 34c5 7d3f 0b13 8d3f b195 8e3f ecd2 6b3f
00000020: 0c07 7e3f 816f 353f 1cba 793f 6b9f 5c3f
00000030: 4258 5a3f 4aa9 4e3f 4526 6d3f c338 533f
00000040: 7040 6e3f 2fa1 763f 08d8 a53f b41d 6f3f
00000050: d94c 723f 3871 7b3f 56aa 6f3f b4e4 7d3f
00000060: f418 663f 4dee 753f 3505 6c3f f3f8 673f
00000070: 17bc 763f 3290 6e3f cc69 6f3f 1aa9 703f
00000080: 9c3e 6f3f 8bca 7b3f 27e2 7f3f 654b 7b3f
00000090: 7398 863f 735e 6b3f 261f 653f c07e 5d3f
000000a0: 174f 6d3f f0d9 853f 80c4 493f 3c1e 733f
000000b0: fcd1 653f f101 753f 3962 823f e33d 7d3f
000000c0: 83ad 923f fc94 943f 3231 893f 94cb 813f
000000d0: 9ca7 943f 8f5e 6f3f 59cb 6d3f e346 693f
000000e0: 0ecf 593f 980b 7b3f 6db1 903f f687 5e3f
000000f0: 3373 823f bdad 5c3f 6ce0 583f 68a9 783f
00000100: 46aa 803f 71cb 7e3f 38a9 5d3f dd00 813f
00000110: 33e0 703f 2593 883f 5939 733f 67b9 4d3f
00000120: 16a9 8f3f 60bc 5a3f 2433 5b3f c49f 713f
00000130: 6710 7c3f a5a0 563f 9559 8d3f bdfb 743f
00000140: ff1f 683f ccd4 733f d71b 7d3f 44a6 883f
00000150: f0c9 a93f 34d1 5d3f 6ee0 6a3f 4b4c 6a3f
00000160: eac4 7a3f fc62 7d3f c6f7 6f3f d813 603f
00000170: 1457 7f3f f492 783f 29d9 5c3f f324 5d3f
00000180: 34e7 733f 11d5 733f a54a 623f 9567 603f
00000190: dad6 543f 3fc1 4a3f 63f7 793f 35ff 573f
000001a0: 709e 773f b012 6a3f ea54 573f 279d 823f
000001b0: 48e3 673f f4d6 a93f 95e5 663f 8802 843f
000001c0: 2325 693f 6e65 823f 123c 5b3f 5e47 683f
000001d0: 9c39 863f 4220 563f 4a3b 713f b513 653f
000001e0: a2cf 663f 411d 743f 5695 803f 4fe0 663f
000001f0: 451e 683f 76cd 813f 3106 4c3f 9139 7c3f

bn1.bias f4 [128]
-0.0056525012 0.0165627 -0.13737059 -0.17253326 -0.262424 -0.029958304 -0.031326197 -0.06335202
-0.074719876 -0.023100449 -0.14923993 -0.04249207 0.052384466 0.005057579 -0.047618847 -0.12922794
-0.04548068 -0.049184028 0.0473717 -0.09657685 -0.044795282 0.014964055 -0.14573094 -0.16321954
-0.16352986 -0.09390475 -0.19680534 0.044732857 -0.38140267 -0.05383819 0.008516002 -0.06395044
-0.05877113 -0.05798617 -0.06332398 -0.19687817 -0.027070884 -0.16825917 -0.16318883 -0.0019827073
-0.13365032 -0.06314779 -0.06309421 -0.011203592 -0.07557258 -0.1859792 -0.03928134 -0.18885395
-0.058271445 0.015104148 -0.26502287 -0.20903249 0.009721303 -0.02658837 -0.11032695 -0.03902718
-0.15873915 0.004084737 0.15794595 -0.060715836 -0.26276535 -0.14432605 -0.029117715 -0.17973818
-0.21372794 -0.07665311 -0.016217444 -0.08081606 -0.09776371 -0.05965203 -0.0027735424 -0.07379729
0.08941653 0.0066853333 -0.047292974 0.027175214 0.02701987 -0.046812356 -0.14845191 -0.09116621
-0.15527464 -0.02762122 -0.026475899 -0.13728613 -0.6224826 -0.053633604 -0.06419213 -0.0065923776
-0.08470946 -0.19750524 0.07228184 -0.09330984 -0.101644985 -0.13671759 -0.060670044 -0.040939648
-0.09802245 -0.14911088 -0.13075605 -0.05213324 -0.080504276 -0.07309743 -0.057557356 0.010107643
-0.049502637 -0.11670673 -0.042684622 -0.17779295 -0.07425167 0.04864395 -0.08841589 -0.16541542
-0.23391919 -0.08964849 -0.030857915 -0.13134699 -0.0235645 -0.052679792 -0.21350423 -0.11969494
0.029460354 -0.022599632 0.009300035 -0.025792185 -0.061803263 -0.17793754 -0.10873395 -0.14715275
00000000: 9e38 b9bb 80ae 873c e0aa 0cbe 8fac 30be
00000010: 705c 86be 1e6b f5bc e64f 00bd b4be 81bd
00000020: bc06 99bd 273d bdbc 5ad2 18be 2a0c 2ebd
00000030: 1891 563d 0cba a53b fb0b 43bd 5454 04be
00000040: f349 3abd 3175 49bd d408 423d 15ca c5bd
00000050: 427b 37bd cc2b 753c 7e3a 15be 0623 27be
00000060: 5f74 27be 2251 c0bd 5787 49be cd39 373d
00000070: 3647 c3be 6f85 5cbd b486 0b3c 73f8 82bd
00000080: ffb9 70bd e882 6dbd 01b0 81bd 6e9a 49be
00000090: c2c3 ddbc 224c 2cbe f91a 27be 4ff0 01bb
000000a0: a1db 08be a153 81bd 8a37 81bd 458f 37bc
000000b0: ccc5 9abd 5571 3ebe 78e5 20bd ee62 41be
000000c0: 0aae 6ebd 6377 773c 14b1 87be 9d0c 56be
000000d0: 1a46 1f3c dacf d9bc 19f3 e1bd f7da 1fbd
000000e0: 848c 22be 42d9 853b 95bc 213e 2bb1 78bd
000000f0: 2e89 86be 35ca 13be 4688 eebc 490d 38be
00000100: 7fdb 5abe 4efc 9cbd 72da 84bc e482 a5bd
00000110: 5738 c8bd b055 74bd 52c4 35bb 0923 97bd
00000120: 0420 b73d a410 db3b 47b6 41bd 8e9e de3c
00000130: c658 dd3c 50be 3fbd c703 18be 5ab5 babd
00000140: 5100 1fbe e645 e2bc fce3 d8bc bc94 0cbe
00000150: 055b 1fbf e9ae 5bbd 2a77 83bd df04 d8bb
00000160: 277c adbd d03e 4abe 8008 943d 3b19 bfbd
00000170: 3f2b d0bd b2ff 0bbe 2781 78bd 55b0 27bd
00000180: ffbf c8bd 86b0 18be eae4 05be aa89 55bd
00000190: 6ddf a4bd 1bb4 95bd 43c1 6bbd 879a 253c
000001a0: 47c3 4abd f003 efbd 12d6 2ebd 5b0f 36be
000001b0: 4211 98bd e13e 473d 6413 b5bd a962 29be
000001c0: 8388 6fbe a199 b7bd bdc9 fcbc d37f 06be
000001d0: 570a c1bc c4c6 57bd daa0 5abe 9f22 f5bd
000001e0: d756 f13c dd22 b9bc 2d5f 183c 224a d3bc
000001f0: 6b25 7dbd 4235 36be e8af debd 36af 16be

bn1.running_mean f4 [128]
0.0011481945 -0.0015970494 -0.0067474074 -0.0035537134 -0.0028076041 0.0026186903 0.00231182 -0.0038438588
-0.0019495601 0.006948857 -0.0035167 0.0023091757 -0.004502504 0.00016803097 0.004724584 0.0016900013
0.0021033674 0.0004970824 0.0045730565 0.0012827024 0.0040178 -0.00079952535 -0.0017275738 -0.0030750986
0.0027709964 -0.00024336245 -0.0028873598 -0.0017626738 -0.0014868239 0.0015237903 0.00398977 -0.0034593306
-0.0011927269 -0.00088867184 -0.0028229835 -0.0034963756 -0.00010179205 -0.00024750718 -0.0057887365 0.0033524686
0.0041491077 0.0016419865 0.0045489236 -0.0019923884 -0.005900411 0.0031498978 0.0010701034 -0.003412126
0.0010214634 -0.0005103279 6.7343635e-06 -0.0032458575 -0.00039772832 0.0008322747 -0.0042922557 0.005550677
-0.0033481454 -0.00086200325 0.004226959 -0.0008588578 -0.0010431291 -0.005776227 -0.003201131 -0.0051914016
0.0014870586 -0.0020609442 0.0037633392 0.0018136095 -0.003942992 0.00051629567 -0.0040399353 0.0024920166
0.0019898964 0.005442488 0.0007619951 -0.0021382396 0.0024492366 0.0020289053 -0.0006115868 -0.0021231275
-0.0018337966 -0.0021882786 0.0017122581 -0.0008683902 -0.0012784612 -0.00029744685 0.002886127 0.0006237109
0.0013051885 -0.0011688833 0.00080135337 -0.0048581087 -0.0013646544 0.0018462058 0.0092501445 0.00077592744
0.0005587456 -0.0004728995 0.005368789 7.125991e-05 0.0065527987 0.000116549934 0.0040439293 -0.0008417981
0.00805975 -0.00036110054 -0.0074470583 -0.0008162448 0.0036142664 0.0017444333 0.002862692 -0.0014889991
-0.0012031357 -0.0024758638 0.0012941064 0.00018195575 0.003755498 0.007708458 -0.0075936555 0.002713101
-0.00631244 -0.0036104687 0.0007396765 0.004429013 0.006009622 -0.0033190856 0.0009885116 -0.0015527469
00000000: 047f 963a 1654 d1ba 5b19 ddbb 6be5 68bb
00000010: c8ff 37bb 559e 2b3b e781 173b 40e9 7bbb
00000020: 6288 ffba 3db3 e33b 6f78 66bb 8a55 173b
00000030: be89 93bb 7831 3039 afd0 9a3b 0983 dd3a
00000040: a6d8 093b a34e 023a 94d9 953b 5a20 a83a
00000050: c0a7 833b 3d97 51ba c26f e2ba 9887 49bb
00000060: 9b99 353b 1c2f 7fb9 dc39 3dbb 8509 e7ba
00000070: 88e1 c2ba ebb9 c73a 9ebc 823b f0b5 62bb
00000080: 4655 9cba c2f5 68ba ce01 39bb 7323 65bb
00000090: 3179 d5b8 dac3 81b9 71af bdbb 17b5 5b3b
000000a0: 3df5 873b ed37 d73a 230f 953b bb92 02bb
000000b0: 3c58 c1bb 846e 4e3b b642 8c3a fa9d 5fbb
000000c0: a0e2 853a 87c7 05ba bef7 e136 74b8 54bb
000000d0: 3186 d0b9 022d 5a3a 0da6 8cbb 74e2 b53b
000000e0: 8f6c 5bbb 0ff8 61ba 4d82 8a3b f924 61ba
000000f0: 9bb9 88ba 8146 bdbb 11ca 51bb a21c aabb
00000100: 68e9 c23a e810 07bb 5ba2 763b a3b6 ed3a
00000110: 3734 81bb 0458 073a 6f61 84bb 1a51 233b
00000120: ec68 023b e656 b23b a0c0 473a b521 0cbb
00000130: 5f83 203b 62f7 043b e552 20ba 2b24 0bbb
00000140: 015c f0ba 3969 0fbb d96d e03a aea4 63ba
00000150: 0a92 a7ba a4f2 9bb9 2d25 3d3b 8880 233a
00000160: dc12 ab3a 3735 99ba ea11 523a c530 9fbb
00000170: 34de b2ba 63fc f13a eb8d 173c 9c67 4b3a
00000180: c878 123a 7fef f7b9 abec af3b 5f71 9538
00000190: dcb8 d63b 456c f438 f082 843b 1dac 5cba
000001a0: 0b0d 043c 1852 bdb9 7406 f4bb 43f9 55ba
000001b0: 54dd 6c3b 78a5 e43a 019c 3b3b 852a c3ba
000001c0: 89b2 9dba 1a42 22bb 019f a93a 60cb 3e39
000001d0: cd1e 763b 3c97 fc3b 33d4 f8bb 48ce 313b
000001e0: 96d8 cebb 9d9d 6cbb dae6 413a 4121 913b
000001f0: 5dec c43b 0485 59bb f290 813a 8a85 cbba

bn1.running_var f4 [128]
0.4329544 0.46636176 0.31714413 0.28867638 0.24619561 0.37590608 0.25504074 0.42339978
0.22140107 0.53432083 0.37707984 0.17923586 0.26795664 0.4669985 0.33205628 0.26569912
0.40046918 0.23391211 0.3520737 0.35938543 0.28053582 0.16526848 0.24873789 0.29242557
0.3448447 0.13912722 0.48485357 0.23739322 0.36937132 0.5094567 0.30762678 0.47045505
0.35904655 0.17077799 0.14988796 0.18171744 0.22901095 0.35261804 0.31200403 0.23194298
0.3843462 0.36367342 0.23631941 0.24341288 0.39323938 0.4423658 0.17646241 0.443092
0.13113154 0.1893051 0.26256716 0.5982318 0.058015354 0.39476088 0.29719296 0.28476396
0.17629814 0.1305991 0.26057205 0.32603183 0.24959195 0.34030005 0.30896673 0.19696938
0.3512228 0.14055052 0.4726928 0.16901217 0.28196368 0.24187307 0.26942968 0.34437865
0.31879187 0.35692927 0.28362685 0.22764722 0.30679718 0.25834328 0.49876606 0.5478108
0.3209995 0.3566777 0.24739404 0.4447309 0.12663208 0.38466758 0.40162718 0.09712972
0.430447 0.22803785 0.17822914 0.28158247 0.14650248 0.2855245 0.49146876 0.45739427
0.37495032 0.21657854 0.38624611 0.18410386 0.3584961 0.2800826 0.32711408 0.2659135
0.38604257 0.38217682 0.46307445 0.3338073 0.43205908 0.23315817 0.4144659 0.2942593
0.10608585 0.227406 0.33583325 0.46422523 0.1732333 0.7637811 0.6000899 0.32090473
0.36860508 0.1970298 0.27451345 0.22084478 0.49022797 0.22381045 0.22262852 0.24533066
00000000: 33ac dd3e f8c6 ee3e b760 a23e 64cd 933e
00000010: b41a 7c3e c376 c03e b394 823e dbc7 d83e
00000020: f6b6 623e 40c9 083f 9c10 c13e 9b89 373e
00000030: 9d31 893e 6d1a ef3e 4803 aa3e b709 883e
00000040: 4c0a cd3e a886 6f3e 0143 b43e 5e01 b83e
00000050: 64a2 8f3e 243c 293e 25b5 7e3e ceb8 953e
00000060: 7c8f b03e 5e77 0e3e ba3e f83e 3517 733e
00000070: 3d1e bd3e c16b 023f 4281 9d3e 7cdf f03e
00000080: f3d4 b73e 6de0 2e3e 3b7c 193e 2314 3a3e
00000090: d981 6a3e 5a8a b43e febe 9f3e 7682 6d3e
000000a0: 06c9 c43e 6733 ba3e b7fd 713e 3a41 793e
000000b0: ac56 c93e c57d e23e 90b2 343e f4dc e23e
000000c0: 5947 063e 32d9 413e 346f 863e b825 193f
000000d0: 82a1 6d3d 191e ca3e ad29 983e 95cc 913e
000000e0: 8087 343e c5bb 053e b369 853e a5ed a63e
000000f0: 0895 7f3e cf3b ae3e e330 9e3e 57b2 493e
00000100: 7ad3 b33e 7aec 0f3e ca04 f23e 8711 2d3e
00000110: 8b5d 903e 93ad 773e b0f2 893e 6652 b03e
00000120: b038 a33e 6fbf b63e 8a37 913e 5a1c 693e
00000130: 8514 9d3e 9245 843e 445e ff3e 543d 0c3f
00000140: 0c5a a43e 769e b63e dd54 7d3e c5b3 e33e
00000150: d7ab 013e 26f3 c43e 14a2 cd3e f2eb c63d
00000160: 8d63 dc3e c182 693e b381 363e 942b 903e
00000170: bf04 163e 4430 923e cba1 fb3e 952f ea3e
00000180: 7df9 bf3e c4c6 5d3e 0dc2 c53e b985 3c3e
00000190: cd8c b73e fd66 8f3e 7f7b a73e d025 883e
000001a0: 5fa7 c53e aeac c33e 1818 ed3e cae8 aa3e
000001b0: d936 dd3e 04c1 6e3e e034 d43e 28a9 963e
000001c0: 8a43 d93d 1edd 683e 56f2 ab3e eeae ed3e
000001d0: 1264 313e 2887 433f 7e9f 193f a04d a43e
000001e0: ceb9 bc3e 2ec2 493e 078d 8c3e 2225 623e
000001f0: 29ff fa3e 912e 653e bbf8 633e f637 7b3e

fc2.weight f4 [128, 128]
-0.028931811 -0.0067511224 -0.10459966 -0.10129569 -0.08285967 0.09241945 -0.03460259 0.08637378
0.06374433 0.0518747 -0.045905408 0.060362387 0.026808301 -0.04863097 0.10614191 0.024177097
0.048310872 -0.086723745 -0.001870553 0.094516866 0.039035335 0.0048321076 0.004407002 0.063496016
0.1190446 0.024421394 -0.029828679 -0.062644534 -0.02684728 0.021498775 0.009262725 0.059744477
0.08381063 0.07542533 -0.019883815 0.09632886 0.07845373 0.020639084 0.0891379 0.06851731
-0.005222821 0.008197628 0.027248919 0.09090012 0.047443215 0.045673486 0.04955514 -0.04101436
-0.0798136 0.021429997 0.012770282 0.031302657 -0.00045549223 -0.022518305 -0.015972452 -0.005672326
0.060696714 -0.008189254 -0.063695215 -0.013781118 -0.015787499 0.0061247833 -0.07029608 0.15671107
0.060151223 0.07228103 -0.041634955 0.003096934 -0.011293415 -0.029682893 -0.018456465 -0.05077407
0.11771029 0.019550452 -0.042698015 0.06705245 0.0020668164 -0.023432696 0.038552076 -0.013405709
0.11337038 -0.011259369 0.04653282 0.03322623 -0.069015905 0.067137495 -0.025118798 -0.038546775
0.02114612 0.004577912 0.047377992 -0.036533643 0.048952255 -0.046313085 -0.04138279 0.008583535
-0.1048132 0.047947377 0.070661545 -0.07523638 0.04594664 -0.07680365 0.0024248147 -0.06422751
0.01949892 0.06388402 0.090126626 -0.0094515 0.060809094 -0.09089682 0.07696253 0.019542448
0.08623017 0.0022669486 0.004048102 0.0441999 0.036295913 -0.01951865 -0.019359486 0.012944799
-0.012154167 -0.030424466 -0.0017330104 -0.038874704 -0.087694965 -0.06541618 -0.02093658 -0.025009975
0.027136551 0.11971625 -0.051463082 -0.07524658 0.023768097 0.1343462 -0.056427684 -0.038131133
-0.025049342 0.03137712 -0.0972964 -0.06260149 -0.061312735 0.05547736 0.09017945 0.031036383
0.032994557 0.05603573 0.11591288 -0.021256076 0.07107371 0.046819385 -0.08681106 -0.017679686
0.0004473333 -0.036050335 0.029813236 0.053617917 0.012558609 0.042902887 -0.035104293 0.11706571
0.038718596 0.008852206 0.029272765 0.10813135 0.008097696 0.028859764 0.08169114 -0.0020295316
0.060236398 0.012086254 0.07213489 -0.06586707 0.02052063 -0.018036017 0.013257202 -0.0035739134
0.007129858 -0.0016526179 0.060115315 -0.029048892 0.0031392814 -0.011819006 -0.08571549 0.017957456
0.0031324385 -0.088069856 0.023639934 -0.0636304 0.0061285007 -0.06253957 0.037238263 -0.039036397
0.039261285 0.06666404 -0.03946289 -0.046679948 -0.084225185 0.14326479 0.016013296 0.0733487
0.0681144 -0.04400646 -0.10794946 -0.062635064 0.041264556 0.03321686 -0.02138442 0.025355957
-0.01415895 -0.08158757 0.041249357 -0.009228785 -0.020069236 -0.07481877 -0.022726433 0.02831169
-0.020356227 -0.0031246564 -0.09431218 0.020146918 -0.07931556 -0.05738134 -0.06848644 -0.061037146
-0.07548553 -0.020569868 0.022763558 -0.064705245 0.0449748 0.039620355 -0.039002866 0.011746691
-0.058012486 0.04107963 0.030126095 0.013690119 0.03697947 0.061853614 -0.058542535 0.039116893
-0.037271783 0.015731601 0.014643079 0.062337764 0.0016618394 -0.028304743 -0.031736787 0.007396223
0.062932156 -0.03115256 0.08689866 -0.08501073 -0.033119548 -0.06322664 -0.056874584 0.14668657
00000000: 6802 edbc 8538 ddbb 5938 d6bd 1d74 cfbd
00000010: 55b2 a9bd 6946 bd3d 72bb 0dbd bde4 b03d
00000020: 638c 823d 917a 543d 4f07 3cbd 8d3e 773d
00000030: 159d db3c 4531 47bd ee60 d93d 0c0f c63c
00000040: 9fe1 453d 389c b1bd 582d f5ba 0f92 c13d
00000050: 84e3 1f3d a856 9e3b 9d68 903b 330a 823d
00000060: a8cd f33d 600f c83c 465b f4bc c74b 80bd
00000070: d4ee dbbc 331e b03c afc2 173c a0b6 743d
00000080: e8a4 ab3d 9878 9a3d 62e3 a2bc 1148 c53d
00000090: 59ac a03d 4c13 a93c ee8d b63d ce52 8c3d
000000a0: 3324 abbb 584f 063c 2039 df3c d829 ba3d
000000b0: d153 423d 1f14 3b3d 55fa 4a3d acfe 27bd
000000c0: 5075 a3bd f68d af3c 723a 513c 3737 003d
000000d0: 22cf eeb9 4f78 b8bc a9d8 82bc ebde b9bb
000000e0: 1e9d 783d 392c 06bc a372 82bd 33ca 61bc
000000f0: c954 81bc 68b2 c83b 64f7 8fbd de78 203e
00000100: 2161 763d 1408 943d 6a89 2abd eef5 4a3b
00000110: 0408 39bc 8a29 f3bc 0332 97bc 79f8 4fbd
00000120: 1812 f13d 4528 a03c 1de4 2ebd cb52 893d
00000130: 6d73 073b edf5 bfbc c8e8 1d3d 9ea3 5bbc
00000140: bb2e e83d 3779 38bc 3399 3e3d 3a18 083d
00000150: 3658 8dbd 627f 893d f0c5 cdbc 39e3 1dbd
00000160: a13a ad3c 4f02 963b 6d0f 423d 4da4 15bd
00000170: 2982 483d cab2 3dbd 0081 29bd f5a1 0c3c
00000180: 4ea8 d6bd 7864 443d 00b7 903d 8815 9abd
00000190: 8b32 3c3d 3b4b 9dbd a4e9 1e3b b689 83bd
000001a0: 33bc 9f3c a0d5 823d 4f94 b83d 77da 1abc
000001b0: f512 793d 1d28 babd 889e 9d3d 7c17 a03c
000001c0: 7299 b03d 1691 143b f1a5 843b f40a 353d
000001d0: 06ab 143d 93e5 9fbc c997 9ebc 6c16 543c
000001e0: 4522 47bc bb3c f9bc 2e26 e3ba 153b 1fbd
000001f0: 6b99 b3bd ebf8 85bd 3183 abbc b8e1 ccbc
00000200: 794d de3c cb2d f53d f4ca 52bd e11a 9abd
00000210: 50b5 c23c 0d92 093e b720 67bd 642f 1cbd
00000220: 4734 cdbc 4c85 003d 5643 c7bd 3635 80bd
00000230: 1023 7bbd 3a3c 633d 01b0 b83d 0340 fe3c
00000240: 4d25 073d b985 653d bb63 ed3d 3921 aebc
00000250: 188f 913d afc5 3f3d ffc9 b1bd fdd4 90bc
00000260: 0f88 ea39 84a9 13bd e33a f43c 769e 5b3d
00000270: a0c2 4d3c f0ba 2f3d 85c9 0fbd 26c0 ef3d
00000280: 6497 1e3d d808 113c 70cd ef3c f873 dd3d
00000290: 33ac 043c 506b ec3c af4d a73d e401 05bb
000002a0: 71ba 763d 6c05 463c 75bb 933d 50e5 86bd
000002b0: e11a a83c 45c0 93bc bc34 593c 5138 6abb
000002c0: 95a1 e93b a89c d8ba 7a3b 763d f1f7 edbc
000002d0: 67bc 4d3b 81a4 41bc 9a8b afbd 841b 933c
000002e0: 9949 4d3b f85d b4bd 89a8 c13c a850 82bd
000002f0: 97d1 c83b bf14 80bd 2687 183d a1e4 1fbd
00000300: 71d0 203d 2887 883d d7a3 21bd 7933 3fbd
00000310: 417e acbd 01b4 123e 512e 833c d837 963d
00000320: 907f 8b3d 1e40 34bd 9b14 ddbd d046 80bd
00000330: 0605 293d 670e 083d 612e afbc 4cb7 cf3c
00000340: f1fa 67bc 6217 a7bd 16f5 283d 5434 17bc
00000350: 3d68 a4bc 953a 99bd c92c babc ebed e73c
00000360: 1ac2 a6bc 09c7 4cbb bf26 c1bd 260b a53c
00000370: 3270 a2bd b208 6bbd 9e42 8cbd 1602 7abd
00000380: 2898 9abd 2482 a8bc a47a ba3c 2f84 84bd
00000390: 7f37 383d f448 223d 78c1 1fbd 3175 403c
000003a0: 809e 6dbd 1d43 283d 00cb f63c 854c 603c
000003b0: c977 173d 375a 7d3d 4cca 6fbd 0939 203d
000003c0: 4caa 18bd 8fdf 803c 86e9 6f3c e255 7f3d
000003d0: 14d2 d93a 59df e7bc 6ffe 01bd 045c f23b
000003e0: 93e2 803d a733 ffbc edf7 b13d 1b1a aebd
000003f0: 5da8 07bd f87c 81bd 53f5 68bd 0135 163e

fc2.bias f4 [128]
6.428802e-08 -3.902228e-06 5.729868e-07 3.3177066e-06 -5.182017e-07 8.243759e-06 -4.923902e-06 -4.5263755e-06
1.2288761e-08 -2.7895323e-06 -7.547502e-08 1.3226638e-06 -7.415388e-07 5.880211e-07 -3.2153557e-06 6.2694863e-07
8.2456114e-07 -1.964022e-05 -9.309592e-07 -3.7021846e-06 3.3353351e-06 1.6059846e-07 2.5488578e-05 1.1675726e-07
1.3171795e-06 -8.7237495e-06 -3.4840791e-06 -1.7150861e-06 -4.3748823e-06 1.6773043e-05 2.7392907e-06 -4.492253e-06
4.4826032e-07 1.1121217e-05 -2.7457552e-05 -2.4043115e-06 4.6952036e-06 -4.7820363e-06 1.9219472e-06 -5.6385948e-06
-4.184802e-08 -4.31476e-06 -1.1492295e-05 -1.2729467e-06 -4.0084687e-06 -6.367547e-06 4.8959446e-06 -1.1156024e-08
-5.5118085e-07 -1.9559473e-06 -9.005097e-08 -1.3552822e-06 2.27239e-06 -7.967143e-06 -2.7526316e-06 5.730293e-07
-1.3513287e-06 -3.598733e-06 -3.9110955e-07 -1.3490273e-06 1.578026e-06 7.298935e-06 -8.1973385e-06 6.5105082e-06
-2.4838852e-07 1.7996181e-06 6.210754e-06 1.4214361e-06 2.654671e-06 1.9501674e-06 -1.8967902e-06 -7.852342e-07
3.945313e-06 -2.4787842e-06 5.494694e-06 -1.2713481e-06 -3.1085988e-06 4.982376e-07 -5.235986e-06 -1.0183288e-05
-9.923418e-08 -1.3826757e-07 -3.2345588e-06 -1.9550869e-06 -5.671379e-07 -4.4979888e-07 4.806341e-07 2.483497e-06
-4.325542e-06 1.3521224e-06 -2.228988e-06 -6.0976104e-06 -7.413949e-06 1.8721698e-06 1.0961139e-06 -4.982593e-07
3.4181478e-06 4.019055e-06 5.399705e-06 1.0695109e-05 -1.0417149e-06 -6.557427e-07 8.8571454e-07 1.7834677e-06
2.2330757e-06 -3.4045024e-06 -4.430075e-06 -1.4453158e-07 1.5817553e-06 9.4401884e-08 2.8317837e-07 4.6372215e-06
3.0105687e-06 9.4739374e-07 -3.9437205e-06 6.4181986e-06 1.3626144e-06 -2.623101e-05 1.9293591e-07 -3.7011914e-06
-1.0269919e-05 -4.690138e-07 -7.58969e-08 2.1705453e-06 -5.4478196e-06 -2.5826512e-06 1.03574885e-05 -4.421827e-06
00000000: b60e 8a33 e2ef 82b6 5acf 1935 c4a5 5e36
00000010: 8d1a 0bb5 ad4e 0a37 ff37 a5b6 45e1 97b6
00000020: 8b1e 5332 cd33 3bb6 d514 a2b3 6286 b135
00000030: 290e 47b5 81d8 1d35 64c7 57b6 954b 2835
00000040: 6957 5d35 0dc1 a4b7 07e7 79b5 0c73 78b6
00000050: 9fd4 5f36 f870 2c34 4ed0 d537 fcbb fa33
00000060: f1c9 b035 385c 12b7 06d0 69b6 e931 e6b5
00000070: f4cb 92b6 d6b3 8c37 a8d4 3736 29bc 96b6
00000080: 6ea8 f034 4395 3a37 a554 e6b7 c259 21b6
00000090: 7e8b 9d36 6175 a0b6 cdfa 0036 2933 bdb6
000000a0: 62bc 33b3 82c7 90b6 08cf 40b7 1eda aab5
000000b0: 7c80 86b6 d0a8 d5b6 d847 a436 b6a8 3fb2
000000c0: dcf4 13b5 eb42 03b6 0b62 c1b3 24e7 b5b5
000000d0: 5d7f 1836 9eaa 05b7 dab9 38b6 46d2 1935
000000e0: 4d5f b5b5 c381 71b6 b0f9 d1b4 3a10 b5b5
000000f0: 8fcc d335 60e9 f436 4d87 09b7 d774 da36
00000100: 425a 85b4 688a f135 f865 d036 2cc8 be35
00000110: e726 3236 9fdf 0236 3795 feb5 e2c8 52b5
00000120: fb61 8436 3059 26b6 105f b836 30a3 aab5
00000130: 529d 50b6 a1be 0535 c7b0 afb6 e4d8 2ab7
00000140: 911a d5b3 b376 14b4 4c11 59b6 2334 03b6
00000150: 6b3d 18b5 e37b f1b4 ed04 0135 27aa 2636
00000160: 1f24 91b6 927a b535 b995 15b6 139a ccb6
00000170: 56c5 f8b6 4447 fb35 301e 9335 1ec0 05b5
00000180: 5563 6536 6bdb 8636 1d2f b536 256f 3337
00000190: 0dd1 8bb5 4c06 30b5 d7c1 6d35 7c5f ef35
000001a0: f3db 1536 e878 64b6 0ea6 94b6 8a30 1bb4
000001b0: b34c d435 fcb9 ca33 bd07 9834 6e99 9b36
000001c0: 2d09 4a36 6750 7e35 4d54 84b6 e85b d736
000001d0: 13e3 b635 aa0a dcb7 d229 4f34 fc61 78b6
000001e0: f74c 2cb7 c4cc fbb4 c3fc a2b3 afa9 1136
000001f0: 6acc b6b6 9c51 2db6 13c5 2d37 345f 94b6

bn2.weight f4 [128]
0.8831207 0.94039243 0.8354572 0.9676341 1.0643457 0.97753024 0.90614545 1.0518445
0.7819638 0.9247655 0.92126 0.96417826 1.0179458 0.7991986 0.9499667 0.9338865
1.0304966 1.1385472 0.79398674 0.8529133 0.92634535 0.980418 1.476178 0.9417502
0.9592764 0.95181745 0.9378389 0.9050502 0.9199579 1.4539771 0.98213226 0.95878375
0.909754 1.335518 1.3533545 0.85620874 1.110186 0.9379991 0.87415093 0.95948917
1.1345336 1.039705 0.8973607 0.8496685 0.9691257 1.1845926 0.9997771 0.9469884
0.84202397 0.94924206 0.8749369 0.91492 0.8141559 1.1267357 1.0275314 0.9474446
0.8222638 0.87777287 0.8228366 0.84906936 0.87736225 0.91507727 0.97581726 0.9608253
0.92035025 0.9553812 0.9609071 0.79880464 0.85998976 0.8969528 0.9103421 1.0452768
0.94737375 0.8991116 0.9627729 1.0302947 0.9438115 1.2655395 0.8896929 1.0797995
0.8453356 0.8510817 1.0195749 0.8894337 0.90603423 1.0904151 0.8955439 0.8972975
0.9026536 0.9250699 0.9244671 0.98146605 0.9546592 1.1449376 0.7753661 0.79790133
1.0860268 1.0028832 1.0535548 1.0692875 0.7437761 0.77574104 0.91853803 0.88685966
0.7966019 0.97707796 0.97237724 0.83520496 0.90637976 0.957305 0.911717 1.0047994
1.0369098 0.94309723 0.86575913 1.1725724 0.9766026 1.0520253 0.9338625 0.9203119
1.5140308 0.8440534 1.0000484 1.0067587 0.8902882 0.9189605 1.1860791 0.95865715
00000000: 3314 623f 8fbd 703f 86e0 553f deb6 773f
00000010: 7b3c 883f 6c3f 7a3f 26f9 673f d7a2 863f
00000020: c82e 483f 6fbd 6c3f b2d7 6b3f 63d4 763f
00000030: 0c4c 823f 4898 4c3f 0531 733f 3013 6f3f
00000040: 50e7 833f eabb 913f b742 4b3f 8758 5a3f
00000050: f824 6d3f adfc 7a3f 67f3 bc3f 8b16 713f
00000060: 2393 753f 4faa 733f 3616 703f 5fb1 673f
00000070: 5c82 6b3f ec1b ba3f 056d 7b3f da72 753f
00000080: a3e5 683f 41f2 aa3f b83a ad3f 7f30 5b3f
00000090: 931a 8e3f b620 703f 5bc8 5f3f 15a1 753f
000000a0: 6638 913f 0e15 853f 6eb9 653f e083 593f
000000b0: 9f18 783f bba0 973f 64f1 7f3f d56d 723f
000000c0: e28e 573f 8701 733f ddfb 5f3f 3238 6a3f
000000d0: 856c 503f e038 903f 2686 833f bb8b 723f
000000e0: e17f 523f b9b5 603f 6ba5 523f 9c5c 593f
000000f0: d09a 603f 8142 6a3f 29cf 793f a6f8 753f
00000100: 139c 6b3f dd93 743f 02fe 753f 767e 4c3f
00000110: 4a28 5c3f b39e 653f 2e0c 693f a1cb 853f
00000120: 1687 723f 2e2c 663f 4978 763f b2e0 833f
00000130: a19d 713f 33fd a13f eac2 633f df36 8a3f
00000140: ea67 583f 7ee0 593f 6e81 823f edb1 633f
00000150: dcf1 673f b992 8b3f 5d42 653f 4ab5 653f
00000160: 4e14 673f 62d1 6c3f e0a9 6c3f 5c41 7b3f
00000170: 8c64 743f 518d 923f 657e 463f 4343 4c3f
00000180: ed02 8b3f 7a5e 803f e2da 863f 6ade 883f
00000190: 1c68 3e3f f796 463f 4f25 6b3f 3c09 633f
000001a0: 1aee 4b3f c821 7a3f b7ed 783f fecf 553f
000001b0: 8108 683f f111 753f 4966 693f 449d 803f
000001c0: 76b9 843f d26e 713f 64a2 5d3f da16 963f
000001d0: a102 7a3f c4a8 863f 9d11 6f3f 9099 6b3f
000001e0: c3cb c13f e213 583f 9601 803f 78dd 803f
000001f0: ede9 633f ff40 6b3f 71d1 973f 8e6a 753f

bn2.bias f4 [128]
-0.10025438 -0.09608666 -0.061671052 -0.18740994 0.10208175 -0.10710105 -0.15868296 -0.0895443
-0.14824004 -0.07509713 -0.22311275 -0.08325048 -0.037091073 0.008899369 -0.07531638 -0.054068156
-0.2392218 -0.39822343 -0.13538928 -0.020752937 -0.096545644 0.0053266482 -0.0442638 -0.033503145
-0.07957195 -0.19473475 -0.14009126 -0.14193884 0.023428246 -0.10649635 0.10327547 -0.26019016
-0.01950963 0.024343304 0.0021092114 -0.0668403 0.06483365 -0.11276358 -0.1174374 -0.20366193
-0.07521633 -0.2160132 -0.12943748 0.0008270764 -0.035603747 -0.05736908 -0.11261733 -0.2483177
-0.043046955 -0.05629825 -0.1060567 -0.19579358 -0.06347667 -0.27094337 -0.30507368 -0.14456338
-0.06111012 -0.028219221 -0.23236635 -0.09033937 -0.065920845 -0.08289345 -0.11741028 0.04442346
-0.17209323 -0.16808313 -0.1458715 -0.06489355 -0.05079407 -0.025309807 -0.09417933 -0.046691883
-0.16998017 0.0008365391 -0.0696211 -0.067167975 -0.34770152 -0.005640776 -0.049963634 -0.3735198
-0.17573713 -0.13941208 0.03650143 -0.06187801 -0.18234721 0.09356009 -0.07576199 -0.12122601
-0.1570506 0.0066249296 0.013656078 -0.3896183 -0.061163902 -0.020799436 -0.045673005 -0.10032415
-0.14039685 -0.21524547 -0.123729065 -0.31406665 -0.14114176 -0.08991832 -0.06192601 -0.12298875
-0.036221854 -0.36592707 0.010999552 -0.18722363 -0.10548992 -0.14183643 -0.046446413 -0.01832043
-0.050591167 -0.17320526 0.008394307 -0.4609072 -0.025043745 -0.10197991 -0.10782717 -0.112391844
-0.055448726 -0.09904558 -0.053900257 -0.23379354 -0.123671435 -0.17135824 -0.3314523 -0.042892396
00000000: 2b52 cdbd 15c9 c4bd c99a 7cbd 64e8 3fbe
00000010: 3d10 d13d cc57 dbbd c97d 22be 0163 b7bd
00000020: 3dcc 17be 86cc 99bd ab77 64be 3a7f aabd
00000030: cfec 17bd a9ce 113c 793f 9abd 9276 5dbd
00000040: 8ff6 74be f1e3 cbbe 7da3 0abe 1002 aabc
00000050: b9b9 c5bd 2a8b ae3b f54d 35bd 983a 09bd
00000060: 9ef6 a2bd 8c68 47be 1574 0fbe 6a58 11be
00000070: 98ec bf3c c21a dabd 1782 d33d a537 85be
00000080: a9d2 9fbc 9c6b c73c b23a 0a3b 91e3 88bd
00000090: 81c7 843d 98f0 e6bd 0583 f0bd c18c 50be
000000a0: 050b 9abd 9032 5dbe 428b 04be 28d0 583a
000000b0: 3cd5 11bd d7fb 6abd eaa3 e6bd ff46 7ebe
000000c0: 0152 30bd fe98 66bd 4134 d9bd 1d7e 48be
000000d0: 0e00 82bd 17b9 8abe 9e32 9cbe 6c08 14be
000000e0: 9b4e 7abd ff2b e7bc 72f1 6dbe d903 b9bd
000000f0: 8201 87bd 0bc4 a9bd cd74 f0bd 60f5 353d
00000100: 3539 30be fc1d 2cbe 575f 15be e9e6 84bd
00000110: 710d 50bd 8356 cfbc 18e1 c0bd fd3f 3fbd
00000120: 480f 2ebe 304b 5b3a 8295 8ebd 5d8f 89bd
00000130: ef05 b2be 42d6 b8bb aba6 4cbd fd3d bfbe
00000140: 6ff4 33be 0ac2 0ebe 8682 153d cc73 7dbd
00000150: 3ab9 3abe 6f9c bf3d 1a29 9bbd 5845 f8bd
00000160: dfd1 20be f015 d93b bebd 5f3c 0d7c c7be
00000170: 0087 7abd 9463 aabc 9e13 3bbd bf76 cdbd
00000180: 31c4 0fbe 4f69 5cbe aa65 fdbd 58cd a0be
00000190: 7787 10be 1927 b8bd 21a6 7dbd 87e1 fbbd
000001a0: 5e5d 14bd cb5a bbbe 7737 343c 8db7 3fbe
000001b0: 190b d8bd 923d 11be 983e 3ebd ba14 96bc
000001c0: af38 4fbd b85c 31be 4788 093c 07fc ebbe
000001d0: 8a28 cdbc d8da d0bd 7ed4 dcbd b22d e6bd
000001e0: 341e 63bd 69d8 cabd 84c6 5cbd 9367 6fbe
000001f0: 7347 fdbd 8978 2fbe 1eb4 a9be f0af 2fbd

bn2.running_mean f4 [128]
0.084510714 0.08313703 -0.17396164 -0.26308465 -0.063145205 0.25558934 0.08094338 0.13644075
0.12591216 -0.07437715 -0.002421533 0.18456897 0.15239157 -0.0012558423 -0.21484411 -0.21404073
0.015737066 0.13695335 -0.14696996 0.05606448 -0.1644226 -0.095320895 0.036025535 0.07927178
-0.19389392 0.051739294 0.13373427 -0.105228856 -0.17497727 -0.049042262 -0.1869135 0.12762867
0.10325018 -0.08283391 -0.16540082 -0.03516653 -0.1159446 0.035922624 0.21260598 -0.039452635
0.07867276 -0.028048601 0.054049388 -0.15065818 0.028741349 -0.10516109 0.09455869 0.11583118
-0.15890107 0.16802423 -0.041924726 -0.01639779 0.11686311 0.22797328 -0.054854278 0.21125315
0.039651696 -0.22070499 0.081217155 -0.1801664 -0.10643323 -0.20948216 0.14223987 -0.16545293
-0.1311725 0.11242738 -0.072552696 0.043242548 0.011613938 0.0003862649 0.118346594 -0.08101801
-0.25094968 0.03654954 0.03572273 0.020319099 0.0859491 -0.20889801 -0.12887023 0.086458206
-0.25914067 -0.07606658 -0.16443053 0.07951789 0.106018946 -0.11831846 0.10907753 0.016855035
0.117211886 0.009821225 0.035406392 -0.019621529 -0.056747273 -0.19882032 -0.00065729494 0.041750092
-0.26948953 -0.06294979 -0.18171595 0.041129198 -0.038177352 -0.22673398 -0.0569949 0.16258451
0.025150916 0.19130212 0.05630781 0.2049347 -0.105611764 -0.05527717 -0.05319249 0.09207319
-0.0035986984 -0.112196654 0.0390314 0.019854521 -0.03170776 0.24030045 0.17804334 -0.013848961
-0.15593688 -0.17294286 0.15765323 0.040442858 0.027664501 -0.065057434 0.026763257 0.06509767
00000000: f413 ad3d bf43 aa3d 0023 32be 08b3 86be
00000010: 4652 81bd 9bdc 823e a5c5 a53d 20b7 0b3e
00000020: 1eef 003e 0c53 98bd 95b2 1ebb a6ff 3c3e
00000030: 890c 1c3e 139b a4ba 1800 5cbe 7e2d 5bbe
00000040: 05eb 803c 803d 0c3e 4b7f 16be dea3 653d
00000050: 665e 28be 9a37 c3bd 838f 133d 3e59 a23d
00000060: 218c 46be 95ec 533d a3f1 083e 3a82 d7bd
00000070: 3e2d 33be 8ae0 48bd 4166 3fbe 17b1 023e
00000080: d574 d33d d3a4 a9bd d55e 29be c80a 10bd
00000090: 5d74 edbd 9a23 133d 62b5 593e 1699 21bd
000000a0: 2f1f a13d 2ec6 e5bc e462 5d3d 2346 1abe
000000b0: fa72 eb3c b35e d7bd fda7 c13d e638 ed3d
000000c0: f6b6 22be 8b0e 2c3e 43b9 2bbd a854 86bc
000000d0: ed55 ef3d d471 693e e1ae 60bd bf52 583e
000000e0: d169 223d 7d00 62be 2e55 a63d 8a7d 38be
000000f0: aaf9 d9bd 7e82 56be 54a7 113e 7e6c 29be
00000100: 1552 06be 5440 e63d 8296 94bd 191f 313d
00000110: 6348 3e3c 9983 ca39 b35f f23d c5ec a5bd
00000120: 7a7c 80be f8b4 153d ff51 123d 3d74 a63c
00000130: 1506 b03d 5ce9 55be 8ff6 03be 0011 b13d
00000140: 16ae 84be ccc8 9bbd 7a60 28be 47da a23d
00000150: 7620 d93d f350 f2bd 0a64 df3d 9213 8a3c
00000160: c90c f03d 34e9 203c 4b06 113d 54bd a0bc
00000170: d46f 68bd 8e97 4bbe 514e 2cba 2502 2b3d
00000180: 88fa 89be d2eb 80bd bf13 3abe 1777 283d
00000190: db5f 1cbd f42c 68be 7c73 69bd 8e7c 263e
000001a0: 4b09 ce3c b4e4 433e 05a3 663d 67da 513e
000001b0: fb4a d8bd 506a 62bd 5ee0 59bd de90 bc3d
000001c0: 24d8 6bbb 5cc7 e5bd 64df 1f3d f3a5 a23c
000001d0: ffdf 01bd 5211 763e fe50 363e c1e6 62bc
000001e0: ebad 1fbe ef17 31be d96f 213e 69a7 253d
000001f0: aaa0 e23c d53c 85bd 9e3e db3c ed51 853d

bn2.running_var f4 [128]
0.14660907 0.12135839 0.78664094 1.5714507 0.6260641 0.3162454 0.6586405 1.2157363
0.39879665 0.53197455 0.30460578 0.74046224 1.1127318 0.6933993 0.4671444 0.18277475
0.19738127 0.14571862 1.2795705 0.5595998 0.5018369 0.95276266 0.068772234 1.4912025
0.21035303 0.57783985 0.29104704 0.580908 0.14011744 0.08587212 0.4713625 0.23629513
0.6057716 0.10764341 0.1356404 0.8762096 0.43180308 1.0275054 0.5311554 0.94704664
0.2653892 0.16617243 0.36082986 0.5114127 0.78753793 0.156257 0.14131205 0.3316831
0.6353026 1.7024003 1.3383658 0.3980231 0.51761043 0.14315367 1.4168991 0.9653049
0.8788791 0.16747284 0.31405345 0.57972246 0.6297037 1.511836 0.36993858 0.54470855
0.14342813 0.25509086 0.32329854 0.73690975 0.9614612 1.0275342 0.37864187 0.997427
0.08574771 0.4644508 0.7203443 0.64546025 0.64090097 0.08148328 0.09239025 0.093419224
1.5076376 0.77903897 0.17000794 0.53383577 0.3643982 0.47545853 0.9044299 0.54495764
0.43323213 1.1600627 0.521755 0.23557042 0.38004345 0.85352015 0.19551407 1.4997618
0.6351765 0.22358577 1.6763551 0.07466735 0.1326585 1.4965467 0.43730557 0.49421924
0.6706083 0.34918216 0.68226504 0.2338251 0.9073442 0.5044201 0.89133626 0.302352
0.840406 0.15177692 1.1204067 0.0460138 0.44666144 0.103818916 0.98961604 0.48376182
0.08054484 0.44761235 0.7540091 0.45006013 0.6741338 0.5300067 0.50787437 0.60049903
00000000: b020 163e bf8a f83d 4d61 493f 4c25 c93f
00000010: bd45 203f ebea a13e aa9c 283f 3f9d 9b3f
00000020: 132f cc3e 7c2f 083f 4af5 9b3e ef8e 3d3f
00000030: ff6d 8e3f 9e82 313f 8d2d ef3e 4e29 3b3e
00000040: 511e 4a3e 4337 153e f7c8 a33f ef41 0f3f
00000050: 6278 003f 41e8 733f 75d8 8c3d b9df be3f
00000060: c966 573e 50ed 133f 1e04 953e 63b6 143f
00000070: f27a 0f3e b9dd af3d 6d56 f13e 5af7 713e
00000080: d913 1b3f 2674 dc3d 51e5 0a3e 464f 603f
00000090: 4b15 dd3e 4c85 833f cdf9 073f a671 723f
000000a0: 18e1 873e 1b29 2a3e b1be b83e f1eb 023f
000000b0: 169c 493f d601 203e 1bb4 103e 5ed2 a93e
000000c0: 31a3 223f 41e8 d93f 924f ab3f afc9 cb3e
000000d0: 1e82 043f e096 123e f35c b53f 391e 773f
000000e0: 38fe 603f 007e 2b3e 9dcb a03e b168 143f
000000f0: 4334 213f d883 c13f 9768 bd3e 0572 0b3f
00000100: d3de 123e 459b 823e 6387 a53e 1ea6 3c3f
00000110: 5222 763f 3e86 833f 59dd c13e 6057 7f3f
00000120: 7f9c af3d 7fcc ed3e 7c68 383f e23c 253f
00000130: 1612 243f b5e0 a63d 1937 bd3d 9452 bf3d
00000140: 45fa c03f 196f 473f 9016 2e3e 76a9 083f
00000150: 6792 ba3e 4d6f f33e b888 673f 5882 0b3f
00000160: 9ad0 dd3e ef7c 943f bc91 053f 5f39 713e
00000170: 0e95 c23e 4c80 5a3f d734 483e 32f8 bf3f
00000180: ed9a 223f abf3 643e ce92 d63f 32eb 983d
00000190: a1d7 073e d88e bf3f 84e6 df3e 4e0a fd3e
000001a0: fcac 2b3f 01c8 b23e eca8 2e3f d96f 6f3e
000001b0: b647 683f ad21 013f 9d2e 643f e2cd 9a3e
000001c0: d924 573f 696b 1b3e 7d69 8f3f f778 3c3d
000001d0: cfb0 e43e 039f d43d 7a57 7d3f a1af f73e
000001e0: b1f4 a43d 722d e53e be06 413f 486e e63e
000001f0: 0894 2c3f 85ae 073f 0e04 023f 4eba 193f
